checkpoint_dir/Learning_rate_grid_search/eeg_checkpoint_learning_rate_search.pth.tar (torch, 192087 bytes, 39 tensors)

conv1.weight f4 [8, 1, 1, 64]
0.050421625 0.004213914 -0.032125976 0.026501883 -0.07424968 0.058486853 0.038787298 0.049201634
0.022123266 -0.025766628 -0.17368542 -0.077852726 0.002496175 0.015749149 -0.05824706 0.025927957
0.041831322 -0.0077557075 0.05484308 -0.029971778 0.063389175 0.051784407 0.07753547 -0.050822187
0.041620083 -0.008246459 -0.041710388 0.05023705 -0.04508825 0.06480941 -0.020079724 0.046509676
-0.16012853 -0.013233104 0.009982844 -0.023272797 -0.01946267 0.04312803 -0.03317295 0.07302069
0.047404762 0.0155449575 -0.014208546 -0.02597485 0.014553472 0.0019068323 -0.09204667 -0.02678899
0.024338875 -0.0018885 -0.06592797 -0.028711407 -0.017269367 0.15230633 -0.0466966 0.028263709
-0.003751183 0.04299613 0.02298673 0.0052858037 -0.054131214 0.045332506 0.023169542 -0.066197634
0.06005086 -0.0605983 -0.009891345 0.017940823 0.0024300958 -0.11255809 0.029047148 -0.0035755306
-0.10661811 0.07223626 -0.024111282 -0.03909601 0.0032629531 0.05933566 0.062582895 -0.07868261
-0.060935944 0.019689783 -0.002566009 -0.013122963 0.16378726 -0.0046003717 0.01790559 0.014199593
0.08806343 0.0017803145 -0.0567744 0.017978635 0.12839697 0.00061996485 -0.10180831 0.044155456
-0.0057201744 -0.018272696 0.0010153675 -0.047253795 0.07300087 0.059532702 -0.037394334 -0.055643205
-0.025541535 0.10698392 -0.04314361 -0.040914137 -0.049738716 -0.052653987 -0.014307393 -0.074852586
-0.040971585 -0.0003779474 -0.029516388 0.0060255174 0.0029613846 -0.06837324 -0.031003356 0.11978004
-0.05066645 -0.016856318 0.097122 -0.01626422 0.06323751 0.054863147 0.055934016 -0.050592717
-0.043585688 0.04572503 0.06285304 -0.059422884 -0.058028523 0.0016777331 0.011000137 0.030006131
-0.07591434 -0.003869641 -0.03067473 -0.063401915 0.057813264 -0.10469884 0.06173088 0.12644374
-0.07166407 -0.084860705 0.043748844 -0.06674454 0.071799606 0.09377251 0.022884311 0.050223414
0.10141387 0.018849447 0.01695687 -0.14551887 0.040309496 -0.041286375 0.04114372 0.0013956488
-0.07110606 0.106079385 -0.13238427 -0.039788984 0.07511396 0.1428339 0.07370127 -0.044808183
-0.00026292907 0.044720583 -0.09422262 -0.085118964 0.02283557 -0.07769218 -0.02074152 -0.032175932
-0.017242042 0.008306335 -0.069633655 0.022109471 0.06830923 -0.006262082 -0.0067131505 -0.020041121
-0.009703486 0.019895336 -0.034680985 -0.020248096 0.050697368 0.09024357 0.0023927256 -0.011585493
-0.024234425 0.052138284 -0.045550264 -0.016428696 0.024142781 -0.017865026 -0.020203952 0.0579816
0.031210039 0.038293704 0.033759125 -0.039162092 0.0148956105 -0.0019534202 -0.20827897 0.057473
0.1129581 -0.006955084 -0.037927564 -0.032988336 -0.070669636 -0.04945047 0.071417585 0.020042237
-0.05381652 0.037201636 0.042688303 0.008548628 0.034345012 -0.035205137 -0.03132481 -0.0187937
0.06863481 0.06283655 0.033501998 -0.05556008 0.10582067 0.08751805 0.03304119 0.024070196
-0.14334755 -0.059413712 -0.041650772 0.033848997 -0.14727119 -0.07658969 -0.04592458 -0.016690027
-0.030370917 0.15016364 -0.012266853 -0.04205037 0.04785447 0.06139707 0.0055642654 0.082046814
-0.014517432 -0.032981303 0.11289704 -0.10128315 0.068414755 0.009763584 -0.051286038 -0.041807074
00000000: e886 4e3d df14 8a3b 8796 03bd 7a1a d93c
00000010: 3710 98bd e98f 6f3d 6edf 1e3d a787 493d
00000020: da3b b53c 8914 d3bc 97da 31be 4071 9fbd
00000030: de96 233b 5c04 813c 7894 6ebd de66 d43c
00000040: 5257 2b3d 9723 febb 23a3 603d 6087 f5bc
00000050: 2fd2 813d e31b 543d ebca 9e3d ed2a 50bd
00000060: d279 2a3d 281c 07bc 83d8 2abd 5dc5 4d3d
00000070: 75ae 38bd ccba 843d 3c7e a4bc ee80 3e3d
00000080: bcf8 23be a9cf 58bc 158f 233c 98a6 bebc
00000090: 2d70 9fbc 04a7 303d 5ce0 07bd df8b 953d
000000a0: 7f2b 423d 47b0 7e3c f6ca 68bc 35c9 d4bc
000000b0: b071 6e3c adee f93a f782 bcbd 9574 dbbc
000000c0: 5262 c73c 8b87 f7ba 3e05 87bd 2f34 ebbc
000000d0: 7d78 8dbc 31f6 1b3e ef44 3fbd 4b89 e73c
000000e0: 68d6 75bb b61c 303d ab4e bc3c 8934 ad3b
000000f0: b1b8 5dbd 94ae 393d 0dce bd3c a092 87bd
00000100: e4f7 753d ec35 78bd 4f0f 22bc a2f8 923c
00000110: 3e42 1f3b db84 e6bd 49f4 ed3c 7353 6abb
00000120: 985a dabd 9bf0 933d 0685 c5bc 2323 20bd
00000130: 45d7 553b f309 733d 762b 803d 5924 a1bd
00000140: f897 79bd 784c a13c 7d2a 28bb b201 57bc
00000150: d9b7 273e b7be 96bb beae 923c 69a5 683c
00000160: 995a b43d 7159 e93a 468c 68bd ee47 933c
00000170: 7f7a 033e 2385 223a e080 d0bd 5adc 343d
00000180: 4d70 bbbb 9fb0 95bc 1416 853a 328d 41bd
00000190: 7b81 953d 90d8 733d cd2a 19bd 21ea 63bd
000001a0: 7b3c d1bc 631a db3d 5bb7 30bd 9595 27bd
000001b0: d3ba 4bbd b5ab 57bd 8e69 6abc 504c 99bd
000001c0: d2d1 27bd 3e27 c6b9 5acc f1bc b471 c53b
000001d0: ca13 423b 4507 8cbd c0fa fdbc 3d4f f53d
000001e0: a087 4fbd 4316 8abc e6e7 c63d 8b3c 85bc
000001f0: ab82 813d 2eb8 603d 111b 653d 4f3a 4fbd
00000200: e886 32bd 2b4a 3b3d 18b9 803d 6965 73bd
00000210: 51af 6dbd 62e7 db3a eb39 343c 6bcf f53c
00000220: fa78 9bbd ce99 7dbb 9249 fbbc ddd8 81bd
00000230: 9acd 6c3d 586c d6bd 85d9 7c3d 787a 013e
00000240: 9dc4 92bd 73cb adbd fd31 333d 5db1 88bd
00000250: ac0b 933d cd0b c03d e177 bb3c 11b7 4d3d
00000260: 13b2 cf3d 286a 9a3c 22e9 8a3c e602 15be
00000270: 921b 253d e71b 29bd 5186 283d 34ee b63a
00000280: 0ea0 91bd 2640 d93d be8f 07be c6f9 22bd
00000290: 59d5 993d 0d43 123e b1f0 963d c988 37bd
000002a0: bed9 89b9 ee2c 373d caf7 c0bd da52 aebd
000002b0: a911 bb3c 141d 9fbd 1fea a9bc e9ca 03bd
000002c0: 2f3f 8dbc 4b17 083c 179c 8ebd ec1e b53c
000002d0: b6e5 8b3d 2732 cdbb fdf9 dbbb 472d a4bc
000002e0: 5ffb 1ebc 8bfb a23c a60d 0ebd 56df a5bc
000002f0: 0ba8 4f3d 9fd1 b83d 46cf 1c3b 14d1 3dbc
00000300: 4687 c6bc f48e 553d ea92 3abd 7995 86bc
00000310: 15c7 c53c ad59 92bc c282 a5bc 1d7e 6d3d
00000320: 32ac ff3c dcd9 1c3d 0247 0a3d 6e68 20bd
00000330: b80c 743c f404 00bb 1547 55be cf68 6b3d
00000340: 9456 e73d 79e7 e3bb ef59 1bbd c71e 07bd
00000350: 3ebb 90bd 938c 4abd 6243 923d 9e2f a43c
00000360: b66e 5cbd be60 183d eed9 2e3d 8b0f 0c3c
00000370: 5bad 0c3d 4333 10bd 724e 00bd 3ff5 99bc
00000380: 6890 8c3d 73b0 803d 6439 093d f792 63bd
00000390: 82b8 d83d aa3c b33d 3356 073d dc2e c53c
000003a0: b3c9 12be cb5b 73bd 009a 2abd 3fa5 0a3d
000003b0: 42ce 16be 0edb 9cbd 6a1b 3cbd 86b9 88bc
000003c0: 6ecc f8bc 7fc4 193e e9fa 48bc 023d 2cbd
000003d0: 0c03 443d 7e7b 7b3d 7154 b63b 2908 a83d
000003e0: 86da 6dbc 6717 07bd 9036 e73d 8a6d cfbd
000003f0: 091d 8c3d 70f7 1f3c 4f11 52bd e53d 2bbd

batchnorm1.weight f4 [8]
1.022421 0.9907081 0.99642754 1.0105335 1.0041475 1.021157 0.9914327 0.99611366
00000000: b1de 823f 0c9f 7d3f e015 7f3f 2959 813f
00000010: e887 803f 46b5 823f 89ce 7d3f 4e01 7f3f

batchnorm1.bias f4 [8]
-0.00056027697 -0.0026594824 0.000100101555 0.0001529879 0.0023853662 0.0005613908 0.0012981718 -0.00036598954
00000000: 8ddf 12ba b64a 2ebb 9ded d138 606b 2039
00000010: ce53 1c3b 4d2a 133a 6b27 aa3a 49e2 bfb9

batchnorm1.running_mean f4 [8]
9.077252e-06 -6.2137053e-07 -5.1109157e-07 -2.187246e-05 8.487434e-06 8.679783e-06 1.0736426e-05 -4.4813733e-05
00000000: 804a 1837 42cc 26b5 f231 09b5 c07a b7b7
00000010: 4065 0e37 629f 1137 9920 3437 61f6 3bb8

batchnorm1.running_var f4 [8]
0.04948243 0.12137202 0.08672644 0.09359623 0.027620533 0.08691841 0.10330038 0.19152698
00000000: 17ae 4a3d e591 f83d a29d b13d 61af bf3d
00000010: 7544 e23c 4802 b23d 268f d33d a61f 443e

depthwiseConv.weight f4 [16, 1, 37, 1]
-0.017572083 0.06375371 -0.05427245 -0.0027838105 -0.12102499 0.078612424 0.038754832 -0.0025524374
0.016562311 0.06214739 0.06483964 -0.047493394 0.01096654 -0.00838302 0.008974392 0.010146314
-0.04663607 -0.066482425 0.0001430578 0.012394693 0.0518489 0.07601553 0.10013022 0.026958426
0.10260666 0.09380847 -0.04522214 0.0052031684 0.02850406 0.030890593 0.12524863 -0.0055282936
0.019827789 0.013508991 -0.06870447 0.013553991 0.06591323 0.0030069465 0.057777762 0.030090928
-0.021073123 0.01885405 0.048983704 0.0042922557 0.014603595 0.081676275 -0.013146732 -0.033549592
0.052381318 -0.02943846 0.05142575 0.0058321566 0.06454135 0.0418925 0.083704196 0.0033222293
-0.08776881 0.010596544 -0.0086256545 0.034387074 -0.01051909 -0.04800859 0.119374454 -0.09447015
-0.054158773 0.07243675 -0.0434266 0.035396524 0.1074601 -0.004377751 0.022143163 0.008120561
0.032210145 0.059968002 0.030043727 -0.017909423 -0.015339811 0.08861648 -0.006366214 0.035756033
-0.006974761 -0.07334129 -0.09466648 0.05312459 0.04138984 0.14339349 -0.08910953 0.10142859
-0.030429753 0.008967138 0.095896736 -0.0002820018 -0.06612539 -0.11536888 0.11408773 -0.006798016
0.040509876 0.0033465324 -0.03478924 0.07340682 -0.020169752 -0.0074651376 -0.00242597 0.02594031
0.05184245 -0.09135957 -0.01699501 -0.06672731 -0.02965108 -0.023554027 0.091782965 0.02411897
0.070072725 -0.051267844 -0.008974929 0.03954399 0.055828605 0.027455933 0.12209035 0.011969116
0.083594225 -0.012202665 0.033122893 0.009461695 -0.047652803 -0.051406395 0.013956563 -0.016981935
0.029254453 -0.0017242163 0.021250382 0.06432268 0.0058590733 -0.025695827 -0.033404104 0.023220137
0.04203948 0.08123926 0.009691407 0.06834299 0.09116132 0.0021597412 0.011084386 -0.010804092
0.0054202634 0.051887482 0.0084326565 0.0369034 0.09548699 0.07006274 0.017971482 0.0010000531
0.010178237 0.13236652 0.0015859619 -0.008716019 0.1523527 0.06015187 -0.030248953 0.047703575
-0.03214725 -0.0030379465 0.04075222 0.0028556017 -0.004735574 0.025966385 0.08397835 0.09789179
0.14794621 -0.020545164 0.09432421 0.008751095 -0.0039378605 -0.026137095 -0.021287475 0.029584913
-0.022196423 -0.074222416 -0.024848197 -0.042891886 0.024279524 0.051448625 -0.019058598 -0.020237058
0.0057396027 -0.07851358 -0.019583771 0.0023194863 -0.038057026 0.07220379 -0.010875704 0.019709734
0.021010444 0.023695007 -0.026263451 -0.020801103 0.08810792 0.028253822 0.0039763907 0.08632598
-0.05632819 -0.015934503 -0.10109907 0.06961339 0.014283793 -0.068472385 -0.036713075 -0.0052732565
0.011448523 -0.041217994 0.01488094 -0.03901871 0.043623343 -0.12850924 -0.03606791 -0.05603455
-0.004722092 0.026708694 0.007011762 -0.06632901 0.00696229 0.03173098 -0.026054058 0.026954113
0.01837045 0.0066406303 -0.070975766 -0.09621449 0.122724205 0.080607206 -0.070852555 -0.032562084
0.057553936 0.06100441 0.04596132 -0.018658884 -0.084143125 0.07138835 -0.0640121 0.019892186
0.039555226 0.035528116 -0.10350847 0.04803127 0.02402099 0.05104475 0.03077625 0.075786024
-0.07676301 0.0570073 0.015803067 0.02562404 0.041656505 -0.044222824 -0.0044717584 -0.06489568
00000000: 54f3 8fbc 4e91 823d ca4c 5ebd 9770 36bb
00000010: f3db f7bd 8dff a03d 63bd 1e3d cb46 27bb
00000020: afad 873c 438e 7e3d a5ca 843d 6f88 42bd
00000030: 01ad 333c ef58 09bc 5409 133c ba3c 263c
00000040: 7705 3fbd f027 88bd c901 1639 1c13 4b3c
00000050: 835f 543d 08ae 9b3d 1311 cd3d ebd7 dc3c
00000060: 7123 d23d a81e c03d da3a 39bd 577f aa3b
00000070: 5981 e93c 450e fd3c 2d41 003e b026 b5bb
00000080: e36d a23c d154 5d3c eeb4 8cbd 8f11 5e3c
00000090: 84fd 863d 3110 453b 60a8 6c3d 4081 f63c
000000a0: 8ba1 acbc cf73 9a3c 23a3 483d 0da6 8c3b
000000b0: eb43 6f3c e445 a73d 6465 57bc 4c6b 09bd
000000c0: cb8d 563d ed28 f1bc cfa3 523d ad1b bf3b
000000d0: 412e 843d 7897 2b3d 1b6d ab3d c2b9 593b
000000e0: 22c0 b3bd 209d 2d3c 9e52 0dbc 76d9 0c3d
000000f0: 4358 2cbc a8a4 44bd 987a f43d 9179 c1bd
00000100: 97d5 5dbd b859 943d 17e0 31bd f2fb 103d
00000110: 0a14 dc3d 3d73 8fbb 9465 b53c 1a0c 053c
00000120: c9ee 033d 02a1 753d 431e f63c c8b6 92bc
00000130: d553 7bbc 8f7c b53d ac9b d0bb eb74 123d
00000140: 898c e4bb f533 96bd 80e0 c1bd 2c99 593d
00000150: 6588 293d bed5 123e 0f7f b6bd cbb9 cf3d
00000160: d147 f9bc e7ea 123c 8265 c43d a4d9 93b9
00000170: c06c 87bd 8546 ecbd d4a6 e93d e4c1 debb
00000180: afed 253d 7f51 5b3b 2a7f 0ebd 5156 963d
00000190: 093b a5bc 1d9e f4bb 06fd 1ebb c680 d43c
000001a0: c058 543d ba1a bbbd 1f39 8bbc 54a8 88bd
000001b0: d2e6 f2bc 60f4 c0bc b5f8 bb3d 2595 c53c
000001c0: 4a82 8f3d 3bfe 51bd 950b 13bc e1f8 213d
000001d0: 89ac 643d 44eb e03c 810a fa3d 1c1a 443c
000001e0: 7333 ab3d b0ed 47bc dfab 073d 3a05 1b3c
000001f0: 962f 43bd 838f 52bd 11aa 643c b31d 8bbc
00000200: 09a7 ef3c 19ff e1ba 4815 ae3c 9cbb 833d
00000210: 78fd bf3b 0e80 d2bc bed2 08bd 2838 be3c
00000220: 9731 2c3d c560 a63d b5c8 1e3c 69f7 8b3d
00000230: c9b2 ba3d 728a 0d3b 499b 353c a503 31bc
00000240: 779c b13b f887 543d 2029 0a3c 0528 173d
00000250: af8e c33d 0e7d 8f3d ee38 933c 3714 833a
00000260: 9fc2 263c 178b 073e 0de0 cf3a a2cd 0ebc
00000270: 5902 1c3e cf61 763d a7cc f7bc d364 433d
00000280: d6ac 03bd 4918 47bb cdeb 263d 0c25 3b3b
00000290: e02c 9bbb 75b7 d43c d7fc ab3d 7e7b c83d
000002a0: 367f 173e 554e a8bc 0d2d c13d c160 0f3c
000002b0: 2b09 81bb 761d d6bc 1263 aebc 0f5c f23c
000002c0: 46d5 b5bc ec01 98bd 728e cbbc 67af 2fbd
000002d0: dae5 c63c cbbb 523d c720 9cbc 30c8 a5bc
000002e0: 4713 bc3b bacb a0bd 256e a0bc 8602 183b
000002f0: afe1 1bbd 95df 933d 0230 32bc 4f76 a13c
00000300: 181e ac3c 081c c23c 7326 d7bc 1367 aabc
00000310: ed71 b43d 8f74 e73c 624c 823b adcb b03d
00000320: 63b8 66bd 1389 82bc 070d cfbd 7791 8e3d
00000330: 9206 6a3c 403b 8cbd 7360 16bd 48cb acbb
00000340: 9692 3b3c 33d4 28bd 30cf 733c 15d2 1fbd
00000350: 64ae 323d ed97 03be f2bb 13bd 7c84 65bd
00000360: c7bb 9abb 31cc da3c ecc2 e53b 81d7 87bd
00000370: ec23 e43b 58f8 013d 526f d5bc dfce dc3c
00000380: a07d 963c a599 d93b be5b 91bd 1a0c c5bd
00000390: d456 fb3d 6415 a53d 251b 91bd d25f 05bd
000003a0: adbd 6b3d c3df 793d f041 3c3d 84da 98bc
000003b0: 3b53 acbd 0e34 923d c718 83bd f0f4 a23c
000003c0: a904 223d ee85 113d 40fc d3bd 70bc 443d
000003d0: abc7 c43c 4d14 513d 791e fc3c b435 9b3d
000003e0: ed35 9dbd 7d80 693d 6f75 813c 82e9 d13c
000003f0: 03a0 2a3d fe22 35bd d487 92bb 07e8 84bd

batchnorm2.weight f4 [16]
1.0231287 1.0166106 0.99210465 0.9904899 0.990437 0.99726415 1.0247269 0.9823451
1.0093858 1.001954 1.0209814 1.0187658 0.99673617 0.99033576 1.0122013 0.972366
00000000: e2f5 823f 4c20 823f 92fa 7d3f bf90 7d3f
00000010: 478d 7d3f b44c 7f3f 402a 833f f87a 7b3f
00000020: 8e33 813f 0740 803f 85af 823f eb66 823f
00000030: 1a2a 7f3f a586 7d3f d08f 813f faec 783f

batchnorm2.bias f4 [16]
0.010272292 0.009957725 -0.019346885 -0.021570893 -0.022489062 -0.025216458 -0.01218721 -0.01170191
-0.002122716 -0.020439316 -0.001699337 -0.019267825 0.0018931276 -0.0049904245 -0.009033517 -0.02317465
00000000: 1e4d 283c ba25 233c 5c7d 9ebc 71b5 b0bc
00000010: fb3a b8bc bf92 cebc ddac 47bc 5eb9 3fbc
00000020: 441d 0bbb 5a70 a7bc 4abc deba 8fd7 9dbc
00000030: d222 f83a b786 a3bb 5101 14bc c3d8 bdbc

batchnorm2.running_mean f4 [16]
-0.00034227307 -0.0003171133 -0.0004898372 -0.002104667 3.401336e-05 -3.6803223e-05 8.9427595e-05 5.528534e-06
0.00021349374 -0.00068801764 -5.65803e-05 0.00021611455 -0.00042627883 -0.00070673355 -0.00012987613 0.0004591925
00000000: 1d73 b3b9 3a42 a6b9 6b68 00ba 74ee 09bb
00000010: 91a9 0e38 295d 1ab8 138b bb38 bf81 b936
00000020: 4add 5f39 155c 34ba a250 6db8 cf9c 6239
00000030: 2d7e dfb9 1644 39ba 5c2f 08b9 c6bf f039

batchnorm2.running_var f4 [16]
0.10043332 0.24564505 0.106420316 0.19496639 0.30628338 0.05507748 0.057735905 0.15194525
0.14002855 0.08421624 0.11227068 0.20132105 0.10210169 0.20204929 0.16485405 0.3385743
00000000: fcaf cd3d 608a 7b3e e5f2 d93d 45a5 473e
00000010: 2dd1 9c3e ec98 613d 7c7c 6c3d 8997 1b3e
00000020: a563 0f3e 9079 ac3d 2cee e53d 1b27 4e3e
00000030: b11a d13d 02e6 4e3e 80cf 283e 9c59 ad3e

separableConv.weight f4 [16, 16, 1, 16]
0.04835933 0.06261496 -0.009784392 -0.15753375 0.0126673225 0.023570232 -0.03900438 -0.087155074
-0.056522984 -0.031272173 0.018496811 0.04271849 -0.012836703 0.04750556 0.059553295 0.035924777
-0.17308588 0.08246415 -0.028181339 -0.030815756 0.053219266 -0.02640534 0.036395848 0.20462179
0.04464132 -0.03938569 -0.14290549 -0.051015712 0.011690761 -0.12773795 0.062172394 -0.005936232
0.09640122 -0.014518873 0.10208181 0.056183632 -0.047255255 -0.10629059 0.03897094 -0.05111495
-0.15049148 0.059661705 0.012307686 0.0924136 -0.03072718 0.043271963 0.069660135 0.09348844
-0.15027004 0.008959226 0.14993796 -0.13978384 -0.05602992 0.07792943 -0.112610444 0.14329539
0.019586895 0.041302662 -0.090433925 0.07749596 -0.08175929 -0.032969397 -0.08032934 -0.05122143
0.08699675 0.07769664 0.15946747 -0.21866673 -0.29932067 -0.2604297 0.036982886 0.013966612
-0.037283946 -0.011652941 0.053590264 0.0022538186 -0.005237431 0.06368248 -0.14332978 0.012434765
0.0042157136 -0.040149856 -0.026752757 0.042636417 -0.038120013 0.03018855 0.040008605 -0.034494724
0.05252723 -0.05045385 0.07007355 -0.044793226 -0.08045632 0.14742596 0.058034442 0.024644628
-0.027091004 0.08712013 0.008156334 0.13250391 -0.052779816 0.06372399 -0.11854681 -0.075967155
-0.04499686 -0.13766122 -0.037288047 -0.06188058 0.038596414 0.10200738 0.041028492 0.123053186
-0.10425624 -0.08129097 0.02034852 0.057875607 0.22143449 -0.14968069 0.047235 0.12866634
0.024418857 0.015133201 -0.008513541 -0.045784477 0.044457994 -0.16097024 0.038533375 -0.09272413
0.00353385 0.09922978 0.009164406 -0.096837565 -0.16237012 0.1250135 -0.08757684 0.023919333
-0.029958924 -0.11392061 -0.022821456 0.07541129 -0.02983016 0.17989571 -0.066585384 -0.21282779
-0.10101504 -0.016450925 0.07019382 -0.14098616 -0.02301726 0.112859614 -0.08342081 -0.10137655
0.060221177 0.019275984 0.037475172 0.032634035 0.04250246 -0.18762249 0.021664763 0.022483593
-0.0059136003 -0.18825056 0.058090802 0.08826317 -0.022582565 -0.21716449 0.09505322 -0.09646637
0.13087957 0.2155382 -0.011281184 0.008096496 -0.10429744 -0.0008434428 -0.008502304 -0.037989758
0.081426166 -0.14143457 0.1374831 -0.038312636 -0.04689407 -0.23046552 0.08507252 -0.0017549669
0.040560834 0.047924984 -0.11056358 -0.19809052 0.13243482 0.15430075 -0.21556859 -0.07857485
-0.17589176 0.13273352 0.047368106 0.0031206466 -0.09313272 -0.033995852 -0.04174778 0.016543163
0.00026752806 0.06624141 -0.084799044 -0.043178916 0.107074164 0.011944437 0.0141748395 -0.11502552
0.129311 0.0039595054 0.020276068 0.080473356 -0.056118883 0.005257516 0.0957553 -0.10111805
-0.003282031 -0.033068933 0.06401333 0.0039023382 -0.010084045 0.02001518 -0.062127233 0.005885973
0.053792253 -0.017968707 0.028658506 -0.09616092 0.06350377 0.17618564 -0.01527548 -0.19706875
-0.0033337413 -0.15497284 0.038478103 0.023237271 0.13572738 -0.10067615 -0.034522276 -0.037163973
0.26536015 -0.064304255 0.03614078 0.07639883 -0.17699127 0.120148316 -0.0027216757 0.055649176
-0.033604857 -0.007435078 0.01802587 -0.13394837 -0.004093137 0.0014775408 0.07706484 0.037652414
00000000: 6f14 463d 463c 803d b74e 20bc 8750 21be
00000010: 9a8a 4f3c 5c16 c13c 0fc3 1fbd 5c7e b2bd
00000020: a584 67bd 4017 00bd a086 973c 95f9 2e3d
00000030: 0951 52bc 3195 423d 28ee 733d dc25 133d
00000040: 6d3d 31be f7e2 a83d 8ddc e6bc 5371 fcbc
00000050: 72fc 593d 0350 d8bc d013 153d 6088 513e
00000060: d1d9 363d e452 21bd d155 12be daf5 50bd
00000070: 9b8a 3f3c bdcd 02be 7ba8 7e3d b984 c2bb
00000080: 016e c53d 91e0 6dbc 4510 d13d cf20 663d
00000090: ba8e 41bd e1ae d9bd fe9f 1f3d e95d 51bd
000000a0: 701a 1abe d55f 743d 2da6 493c 5743 bd3d
000000b0: 91b7 fbbc f13d 313d f9a9 8e3d de76 bf3d
000000c0: 64e0 19be b8c9 123c 5689 193e 7f23 0fbe
000000d0: a17f 65bd 7799 9f3d 4ea0 e6bd 07bc 123e
000000e0: b274 a03c fb2c 293d 6c35 b9bd 34b6 9e3d
000000f0: 6a71 a7bd eb0a 07bd b683 a4bd 90cd 51bd
00000100: 5a2b b23d 6a1f 9f3d 714b 233e 2cea 5fbe
00000110: 8f40 99be 0b57 85be 5e7b 173d 37d4 643c
00000120: 0db7 18bd faeb 3ebc 7781 5b3d cdb4 133b
00000130: c19e abbb f66b 823d 0bc5 12be 2fbb 4b3c
00000140: f823 8a3b 2d74 24bd 9928 dbbc 86a3 2e3d
00000150: bb23 1cbd fa4d f73c 10e0 233d 574a 0dbd
00000160: cb26 573d b2a8 4ebd b982 8f3d 1a79 37bd
00000170: 48c6 a4bd d5f6 163e 86b5 6d3d 88e3 c93c
00000180: f4ed ddbc 0a6c b23d 25a2 053c 1baf 073e
00000190: a62f 58bd b981 823d abc8 f2bd ab94 9bbd
000001a0: a14e 38bd 10f7 0cbe 5abb 18bd 7e76 7dbd
000001b0: 4617 1e3d 3fe9 d03d 7e0d 283d 4f03 fc3d
000001c0: 4c84 d5bd e17b a6bd f0b1 a63c f90e 6d3d
000001d0: b9bf 623e e545 19be 7d79 413d 1cc1 033e
000001e0: 0e0a c83c 3ff1 773c 617c 0bbc 8188 3bbd
000001f0: 9619 363d 62d5 24be 2cd5 1d3d 26e6 bdbd
00000200: 2a98 673b fc38 cb3d 4e26 163c c652 c6bd
00000210: 5a44 26be 8a03 003e 7c5b b3bd 7af2 c33c
00000220: 6b6c f5bc 354f e9bd 10f4 babc 3c71 9a3d
00000230: 615e f4bc 9536 383e eb5d 88bd 87ef 59be
00000240: f9e0 cebd 17c4 86bc c7c1 8f3d ad5e 10be
00000250: b18e bcbc f122 e73d 88d8 aabd 829e cfbd
00000260: 7baa 763d abe8 9d3c 917f 193d 44ab 053d
00000270: 0f17 2e3d 1c20 40be 4d7a b13c 832f b83c
00000280: e0c6 c1bb c1c4 40be 9ff0 6d3d 52c3 b43d
00000290: 12ff b8bc 5e60 5ebe 43ab c23d 2990 c5bd
000002a0: 4b05 063e 0cb6 5c3e b7d4 38bc 2aa7 043c
000002b0: e599 d5bd 7d1a 5dba 3f4d 0bbc 269b 1bbd
000002c0: c3c2 a63d 39d4 10be 5fc8 0c3e b6ed 1cbd
000002d0: ff13 40bd 27ff 6bbe 803a ae3d eb06 e6ba
000002e0: 1e23 263d fd4c 443d 296f e2bd 3ed8 4abe
000002f0: fe9c 073e 0401 1e3e 03be 5cbe daeb a0bd
00000300: f81c 34be 4ceb 073e 0f05 423d c383 4c3b
00000310: 5ebc bebd 3c3f 0bbd b8ff 2abd 8785 873c
00000320: 0243 8c39 94a9 873d 1fab adbd 60dc 30bd
00000330: b349 db3d 9ab2 433c 963d 683c 8092 ebbd
00000340: 1a6a 043e bdbe 813b ff19 a63c 37cf a43d
00000350: eadc 65bd 3e47 ac3b 5b1b c43d fb16 cfbd
00000360: 5817 57bb 4a73 07bd 6c19 833d 5fbe 7f3b
00000370: 8d37 25bc e0f6 a33c 2079 7ebd 1fdf c03b
00000380: 4455 5c3d 1c33 93bc 3ec5 ea3c 04f0 c4bd
00000390: 440e 823d 026a 343e 0246 7abc 64cc 49be
000003a0: e67a 5abb 33b1 1ebe 379b 1d3d 175c be3c
000003b0: 1efc 0a3e 4c2f cebd 3b67 0dbd 4039 18bd
000003c0: 49dd 873e f3b1 83bd 5b08 143d fd76 9c3d
000003d0: 333d 35be 5210 f63d 245e 32bb 64f0 633d
000003e0: 3fa5 09bd f4a1 f3bb fdaa 933c c329 09be
000003f0: b91f 86bb 0baa c13a 2cd4 9d3d 6b39 1a3d

batchnorm3.weight f4 [16]
0.970704 0.97220796 0.97284496 0.97175306 0.9711811 0.97301966 0.9717129 0.9734086
0.97406447 0.97222036 0.9722661 0.97289413 0.9714123 0.97356355 0.9729363 0.97272164
00000000: 0f80 783f 9fe2 783f 5e0c 793f cfc4 783f
00000010: 539f 783f d117 793f 2dc2 783f 4e31 793f
00000020: 4a5c 793f 6fe3 783f 6ee6 783f 970f 793f
00000030: 7aae 783f 763b 793f 5a12 793f 4904 793f

batchnorm3.bias f4 [16]
-0.029932482 -0.015536987 -0.03201892 -0.028047165 -0.029817881 -0.02792317 -0.030941278 -0.032403078
-0.029236795 -0.03190997 -0.02847004 -0.032207604 -0.033999152 -0.026100976 -0.031084707 -0.02886044
00000000: f734 f5bc d98e 7ebc 4526 03bd 2bc3 e5bc
00000010: a144 f4bc 22bf e4bc 9078 fdbc 17b9 04bd
00000020: 0182 efbc 07b4 02bd 003a e9bc 1fec 03bd
00000030: b242 0bbd b7d1 d5bc 5ba5 febc bb6c ecbc

batchnorm3.running_mean f4 [16]
-0.16115312 -0.22041133 -0.2389875 -0.1664084 -0.12981068 -0.24536711 -0.035717733 -0.23183073
-0.11182012 -0.2784571 -0.18436047 -0.20946412 -0.19586097 -0.16349062 -0.18342584 -0.20789768
00000000: 5305 25be 82b3 61be 24b9 74be f766 2abe
00000010: 17ed 04be 8441 7bbe c24c 12bd 0965 6dbe
00000020: f201 e5bd ee91 8ebe fec8 3cbe c37d 56be
00000030: c78f 48be 166a 27be fcd3 3bbe 21e3 54be

batchnorm3.running_var f4 [16]
2.1097162 2.1236432 1.8124033 2.2665658 1.775056 2.0422127 2.0474694 1.8002642
1.9219911 2.2956173 2.195541 2.1075518 1.948448 1.9732857 2.2008004 1.5056777
00000000: 9705 0740 c5e9 0740 d5fc e73f 6a0f 1140
00000010: 0935 e33f 9db3 0240 bd09 0340 0f6f e63f
00000020: ce03 f63f 65eb 1240 be83 0c40 21e2 0640
00000030: be66 f93f a094 fc3f ead9 0c40 0cba c03f

dense.weight f4 [6, 1488]
0.0069262786 0.71655554 0.41854802 1.046265 -0.370562 -0.95902914 -0.09199048 0.7767771
-0.63165694 -0.2087329 0.3351976 1.2633526 -0.4525831 1.0255189 1.4001781 0.49370062
-0.12703213 -0.42675227 0.34357408 0.62155277 0.04612565 0.62558633 -0.1814423 0.30963632
-0.79171824 1.0847557 -0.37060618 -0.69882435 0.87903464 0.29917163 -0.37125847 -0.97790945
-0.30793175 -1.2039471 -0.6081413 -0.20110744 0.47233114 -0.0924411 -1.0722607 -0.53963876
-0.5705246 0.62111163 0.114162736 -0.63577074 0.9735278 0.61029947 -0.48943758 0.4993411
-0.44407812 -0.21967183 0.5007156 -1.0198519 0.40447512 0.02673829 -0.7225573 -1.0426717
-0.021145882 0.23157586 -0.2263972 -1.2658355 0.15332745 0.83452994 1.1030834 0.50981
-0.34192505 0.74408954 -0.88865435 0.19626553 -0.33879694 -0.77739835 0.04241663 -0.8648042
-0.28972504 0.17879696 0.09899024 -0.20215231 0.066873156 0.4651185 0.04388989 -0.01635522
-0.07445199 -0.6050981 0.18582833 -0.4556416 -0.88964826 -0.36025566 -0.3730801 -0.20983447
0.031304546 0.97403413 -0.1250517 -0.3546571 -0.124649964 -0.5100537 -0.6669274 -0.690311
-0.5196425 0.6624253 -0.5765762 -0.2611724 -0.39062867 0.3015455 0.7991802 -0.47718292
-0.3791768 0.054107033 -0.15653998 -0.12968381 -0.4870871 -0.0037182136 -0.715424 -0.81109226
1.1820467 -0.047179606 0.762175 0.6643528 -0.22731899 -0.2081996 0.58025247 -1.5048702
-0.7995081 0.643154 0.76071376 -0.22595249 -0.7237745 0.7714269 0.023371223 0.37028596
0.8176439 -0.3339078 -0.82747346 -0.31267008 0.5065164 0.77260864 0.86193484 0.09908865
-0.2393746 -1.3448989 0.36421055 -0.6232784 1.2706311 0.341531 -0.011270343 -0.5753032
-0.1673298 -0.29293877 0.73090696 -0.037612077 0.671586 0.33873898 -0.54804826 -0.68936884
0.8026751 -0.112472914 1.179545 0.63015956 0.43879136 -0.1562633 -0.11666986 -0.3517406
0.7564807 1.1718086 1.2280196 0.5511325 0.60260445 0.59355646 -0.7463408 -0.95514417
0.6981925 0.9712543 0.09842719 -0.85648173 -0.24905577 -0.64448994 -0.53348005 -0.1881913
0.36079308 0.17234707 0.44139037 0.00781469 -0.006651267 1.2449416 -0.26238406 0.34189555
-0.26855105 1.4220883 -1.0111427 -0.6967367 0.14435442 0.17132615 0.32515702 0.39629203
-0.09182904 1.1529101 0.11601996 0.536785 -0.5502965 0.587567 0.5112058 0.094090715
0.070486136 1.0063676 -0.4746399 0.070870675 -0.8417279 0.12105228 -0.2845259 -0.23838411
0.7626893 -0.3887402 0.8589581 -0.6583804 -0.040022675 0.32908344 0.559982 0.37332624
-0.13176453 -0.520735 0.037235565 1.2755729 -0.24101472 0.9699596 0.4365835 0.38021088
-0.7174474 -0.5502778 0.27485764 -0.06612834 0.033558816 0.42633605 -0.35181877 -0.16575968
-0.5118271 0.023821052 -0.1969699 -0.94437426 0.93753844 -1.0364594 -0.47187576 0.32106784
-0.5072657 -0.459884 1.2206949 0.2702624 0.1835056 -1.3322295 -0.21608664 0.7454755
0.21897548 0.12867406 0.10840321 0.8954246 -0.5570876 0.705494 -0.98441535 0.8804726
00000000: d6f5 e23b 2f70 373f ed4b d63e 03ec 853f
00000010: 4dba bdbe ef82 75bf 8165 bcbd ddda 463f
00000020: 45b4 21bf 14be 55be 059f ab3e 8ab5 a13f
00000030: f9b8 e7be 3444 833f 0939 b33f 54c6 fc3e
00000040: b614 02be 467f dabe f1e8 af3e 151e 1f3f
00000050: 40ee 3c3d 6d26 203f 03cc 39be a788 9e3e
00000060: 0cae 4abf 46d9 8a3f 18c0 bdbe 27e6 32bf
00000070: 6a08 613f 062d 993e 9715 bebe 4658 7abf
00000080: 3ba9 9dbe f01a 9abf 26af 1bbf 1cef 4dbe
00000090: 63d5 f13e c251 bdbd d73f 89bf c425 0abf
000000a0: e60d 12bf 2c01 1f3f 27ce e93d dfc1 22bf
000000b0: 1e39 793f 963c 1c3f 9097 fabe a3a9 ff3e
000000c0: 355e e3be a7f1 60be e62e 003f 828a 82bf
000000d0: 5d17 cf3e 420a db3c 84f9 38bf 4476 85bf
000000e0: 213a adbc 3922 6d3e abd4 67be e606 a2bf
000000f0: df01 1d3e c1a3 553f d631 8d3f e882 023f
00000100: cd10 afbe a77c 3e3f da7e 63bf d5f9 483e
00000110: cb76 adbe 9403 47bf 0fbd 2d3d cf63 5dbf
00000120: d756 94be 8d16 373e 65bb ca3d 0401 4fbe
00000130: cbf4 883d 0324 ee3e e3c5 333d 62fb 85bc
00000140: 497a 98bd b6e7 1abf c849 3e3e db49 e9be
00000150: fdbf 63bf 6e73 b8be 5b04 bfbe d9de 56be
00000160: 3239 003d 4d5a 793f 8e0d 00be 9e95 b5be
00000170: 7b48 ffbd e192 02bf c1bb 2abf 39b8 30bf
00000180: 4a07 05bf b494 293f 7f9a 13bf 64b8 85be
00000190: 7b00 c8be 2c64 9a3e 1397 4c3f 5251 f4be
000001a0: 7623 c2be 569f 5d3d 044c 20be d5cb 04be
000001b0: 7b63 f9be 46ad 73bb 0726 37bf bea3 4fbf
000001c0: 4e4d 973f 673f 41bd e71d 433f 0613 2a3f
000001d0: 4fc6 68be 4732 55be 6d8b 143f 969f c0bf
000001e0: 90ac 4cbf bea5 243f 23be 423f 1760 67be
000001f0: 4949 39bf 3c7c 453f 0275 bf3c 1f96 bd3e
00000200: 1c51 513f f7f5 aabe 4dd5 53bf 4b16 a0be
00000210: 0fab 013f aec9 453f c3a7 5c3f fdee ca3d
00000220: 9d1e 75be a625 acbf ce79 ba3e 2c8f 1fbf
00000230: 0aa4 a23f 27dd ae3e 3fa7 38bc 1247 13bf
00000240: 8158 2bbe 12fc 95be b81c 3b3f 1f0f 1abd
00000250: 0fed 2b3f 326f ad3e e44c 0cbf 7a7a 30bf
00000260: 1e7c 4d3f 3358 e6bd 55fb 963f 2352 213f
00000270: 43a9 e03e 7d03 20be 9cf0 eebd 5817 b4be
00000280: b8a8 413f d3fd 953f bf2f 9d3f 0517 0d3f
00000290: 4944 1a3f 51f3 173f 3110 3fbf 5484 74bf
000002a0: bebc 323f 1fa4 783f 3294 c93d 6342 5bbf
000002b0: 7a08 7fbe 4bfd 24bf 2692 08bf 38b5 40be
000002c0: dfb9 b83e c07b 303e ebfd e13e 2f09 003c
000002d0: dff2 d9bb 3f5a 9f3f 3457 86be ef0c af3e
000002e0: 867f 89be fd06 b63f 206d 81bf 565d 32bf
000002f0: a5d1 133e 1f70 2f3e fb7a a63e cae6 ca3e
00000300: dd10 bcbd 8f92 933f df9b ed3d be6a 093f
00000310: 3be0 0cbf ca6a 163f 62de 023f a2b2 c03d
00000320: 095b 903d a7d0 803f 0004 f3be a524 913d
00000330: 7b7b 57bf 42ea f73d 61ad 91be f71a 74be
00000340: 9b3f 433f f508 c7be aee4 5b3f 9e8b 28bf
00000350: d1ee 23bd a07d a83e fb5a 0f3f 9e24 bf3e
00000360: 48ed 06be e44e 05bf 5284 183d f945 a33f
00000370: 90cc 76be 464f 783f df87 df3e 00ab c23e
00000380: a2aa 37bf 02df 0cbf 24ba 8c3e 4c6e 87bd
00000390: f874 093d b848 da3e 9721 b4be e8bc 29be
000003a0: 1a07 03bf 5e24 c33c 7ab2 49be 83c2 71bf
000003b0: 8502 703f b4aa 84bf b399 f1be 0163 a43e
000003c0: 2adc 01bf ea75 ebbe bb3f 9c3f d55f 8a3e
000003d0: e4e8 3b3e 7f86 aabf d145 5dbe 7bd7 3e3f
000003e0: 1c3b 603e 22c3 033e 8102 de3d 8c3a 653f
000003f0: 4b9d 0ebf 419b 343f a502 7cbf a766 613f

dense.bias f4 [6]
0.018048663 0.017757757 -0.024524847 -0.015142212 -0.021134358 0.024053581
00000000: cada 933c b778 913c 55e8 c8bc 0a17 78bc
00000010: f621 adbc 040c c53c

exp_avg f4 [8, 1, 1, 64]
-0.37279943 -0.35329154 -0.3542179 -0.3519833 -0.29740635 -0.24512245 -0.22119299 -0.17253634
-0.12250544 -0.11429225 -0.0869883 -0.018872969 0.02512083 0.055727914 0.11476423 0.1493689
0.143242 0.15728864 0.17180201 0.1418231 0.1215237 0.1326352 0.11770159 0.09970153
0.12635428 0.14591487 0.13772441 0.15557101 0.17431076 0.14573234 0.11786178 0.10780005
0.06140427 0.012076514 0.0075340373 -0.004298164 -0.03604902 -0.02104874 0.018749353 0.028906114
0.05208166 0.09395632 0.09377073 0.078827836 0.1018005 0.113971144 0.095541544 0.104948476
0.11797582 0.08443549 0.05717752 0.057537816 0.024710206 -0.01820976 -0.022926252 -0.03101623
-0.056473017 -0.042341813 -0.014099722 -0.016037837 0.0048038363 0.062070433 0.08521827 0.09127142
-0.23887816 -0.19535281 -0.20017834 -0.14500502 -0.07559732 -0.07338054 -0.045334652 0.03227917
0.053894516 0.061244577 0.12793031 0.1566671 0.1260479 0.14511585 0.17229348 0.13319221
0.12312123 0.16076608 0.13619104 0.09039408 0.10100301 0.0769962 0.0025785116 -0.009974609
-0.0033684585 -0.05690146 -0.07362546 -0.029973738 -0.038870126 -0.061155483 -0.013802787 0.011277108
-0.010493391 0.027927542 0.0830527 0.07094436 0.08330133 0.14315018 0.13847949 0.11084827
0.1449494 0.148787 0.09748557 0.10057763 0.11554072 0.059510887 0.026690535 0.046067365
0.010625698 -0.038105875 -0.020336457 -0.029327372 -0.08795008 -0.087083265 -0.066245936 -0.104894914
-0.11107602 -0.059181366 -0.056731883 -0.063439354 0.001347486 0.046574466 0.049823783 0.11796861
-0.62177616 -0.5200549 -0.48539314 -0.43599313 -0.31721166 -0.25341076 -0.23551394 -0.15283477
-0.07898288 -0.06562668 0.000934319 0.09782075 0.107338876 0.106300354 0.15361416 0.13356683
0.06219228 0.054664757 0.035815295 -0.04809979 -0.07316143 -0.052715085 -0.098601155 -0.12642913
-0.07737564 -0.075234614 -0.10621645 -0.06327377 -0.03605907 -0.08446572 -0.08472502 -0.052577507
-0.097083986 -0.13002375 -0.09757751 -0.1281694 -0.19789203 -0.17962193 -0.15336682 -0.17791143
-0.13647828 -0.05984971 -0.07011309 -0.084233604 -0.046100825 -0.074392654 -0.14565255 -0.14266253
-0.15019445 -0.22714497 -0.25235942 -0.2410699 -0.29301465 -0.31700978 -0.25665927 -0.23937805
-0.25099593 -0.18311815 -0.121809036 -0.12422816 -0.07023097 0.027003432 0.058628365 0.10494094
-0.02677097 -0.048350077 -0.016296493 -0.012688157 -0.033201035 -0.004933061 0.01579136 -0.013332109
-0.011986922 0.016147804 8.635687e-05 -0.0069444925 0.032744095 0.034402743 0.0050142766 0.025046911
0.04298673 0.013594345 0.01790925 0.049175326 0.03312938 0.028471043 0.07517973 0.08582913
0.06491578 0.08798825 0.101079755 0.066215165 0.06959055 0.09876507 0.07023197 0.039114986
0.04451602 0.002874139 -0.068042934 -0.08010128 -0.08469736 -0.11984441 -0.10454443 -0.05877898
-0.06888545 -0.07586437 -0.034497607 -0.031155318 -0.060004797 -0.04528644 -0.046741482 -0.099109165
-0.10491474 -0.07149821 -0.0810608 -0.07943698 -0.033392776 -0.033210114 -0.063693 -0.040734038
-0.019630747 -0.03943566 -0.019616324 0.023808755 0.015596158 0.008530575 0.044948325 0.051868018
00000000: 91df bebe a1e2 b4be 0c5c b5be 2837 b4be
00000010: a545 98be 6101 7bbe 6a80 62be 5ead 30be
00000020: 22e4 fabd 0e12 eabd ec26 b2bd 7c9b 9abc
00000030: 33ca cd3c f442 643d 8209 eb3d 29f4 183e
00000040: 08ae 123e 4610 213e deec 2f3e 133a 113e
00000050: 6be1 f83d 86d1 073e 880d f13d 5130 cc3d
00000060: 0463 013e b56a 153e a107 0d3e 024e 1f3e
00000070: 857e 323e dc3a 153e 8461 f13d 46c6 dc3d
00000080: 0b83 7b3d 92dc 453c 16e0 f63b 9dd7 8cbb
00000090: 23a8 13bd 686e acbc 3e98 993c 84cc ec3c
000000a0: 9453 553d 2c6c c03d de0a c03d 7d70 a13d
000000b0: c87c d03d b469 e93d 49ab c33d 3aef d63d
000000c0: 4f9d f13d 84ec ac3d fa32 6a3d c6ac 6b3d
000000d0: 0f6d ca3c a22c 95bc d6cf bbbc c015 febc
000000e0: 4050 67bd 9c6e 2dbd 8502 67bc c861 83bc
000000f0: 8069 9d3b 913d 7e3d eb86 ae3d 83ec ba3d
00000100: 7a9c 74be 910a 48be 8dfb 4cbe 327c 14be
00000110: c5d2 9abd 8948 96bd d4b0 39bd 2a37 043d
00000120: 7fc0 5c3d 98db 7a3d 2a00 033e 576d 203e
00000130: b312 013e 4099 143e b46d 303e 8a63 083e
00000140: fc26 fc3d dd9f 243e aa75 0b3e 8820 b93d
00000150: abda ce3d 2fb0 9d3d 3ffc 283b 8b6c 23bc
00000160: 5bc1 5cbb 8111 69bd f2c8 96bd 7c8b f5bc
00000170: 4836 1fbd 2c7e 7abd 1625 62bc 9fc3 383c
00000180: 79ec 2bbc 4dc8 e43c 8917 aa3d 474b 913d
00000190: e399 aa3d f695 123e 91cd 0d3e 6b04 e33d
000001a0: 9e6d 143e 9f5b 183e 84a6 c73d a5fb cd3d
000001b0: 9da0 ec3d b0c1 733d 1ca6 da3c 22b1 3c3d
000001c0: 6817 2e3c e814 1cbd a498 a6bc f53f f0bc
000001d0: 2c1f b4bd b658 b2bd f3ab 87bd 25d3 d6bd
000001e0: d37b e3bd 2968 72bd b15f 68bd 7eec 81bd
000001f0: 219e b03a dec4 3e3d 0614 4c3d 8799 f13d
00000200: b92c 1fbf 5122 05bf 7385 f8be 7e3a dfbe
00000210: 9169 a2be 0ebf 81be 912a 71be b880 1cbe
00000220: c7c1 a1bd 4867 86bd 16ed 743a 3f56 c83d
00000230: 7cd4 db3d 00b4 d93d 084d 1d3e bec5 083e
00000240: 55bd 7e3d 27e8 5f3d 0fb3 123d 4904 45bd
00000250: a9d5 95bd c6eb 57bd 67ef c9bd a376 01be
00000260: 1f77 9ebd 9b14 9abd 0388 d9bd ae95 81bd
00000270: adb2 13bd 5dfc acbd 5084 adbd 835b 57bd
00000280: f8d3 c6bd f224 05be b8d6 c7bd d73e 03be
00000290: 35a4 4abe d0ee 37be 310c 1dbe 6a2e 36be
000002a0: f6c0 0bbe f824 75bd 7497 8fbd ab82 acbd
000002b0: 38d4 3cbd 2d5b 98bd f125 15be 2016 12be
000002c0: 93cc 19be b198 68be 4135 81be 07db 76be
000002d0: 0406 96be 1b4f a2be d868 83be 851f 75be
000002e0: 8a82 80be 5383 3bbe 0477 f9bd 556b febd
000002f0: 41d5 8fbd 4d36 dd3c 4c24 703d 47eb d63d
00000300: cb4e dbbc bb0a 46bd 3980 85bc fde1 4fbc
00000310: cffd 07bd 84a5 a1bb e25c 813c eb6e 5abc
00000320: cb64 44bc 6648 843c 7e1a b538 a08e e3bb
00000330: ac1e 063d e4e9 0c3d cd4e a43b 2e2f cd3c
00000340: da12 303d d1ba 5e3c 6bb6 923c 116c 493d
00000350: acb2 073d 1b3c e93c d5f7 993d 2fc7 af3d
00000360: 91f2 843d 2f33 b43d e702 cf3d d19b 873d
00000370: 7e85 8e3d 5745 ca3d c7d5 8f3d 0937 203d
00000380: 6e56 363d 0d5c 3c3b 185a 8bbd 240c a4bd
00000390: cf75 adbd fc70 f5bd 641b d6bd 3ac2 70bd
000003a0: d113 8dbd c75e 9bbd 5d4d 0dbd 7039 ffbc
000003b0: 97c7 75bd 467e 39bd ff73 3fbd bff9 cabd
000003c0: 8add d6bd a76d 92bd 3403 a6bd dbaf a2bd
000003d0: ddc6 08bd 5407 08bd 7a71 82bd bcd8 26bd
000003e0: a9d0 a0bc 4987 21bd 6ab2 a0bc 940a c33c
000003f0: 0787 7f3c d3c3 0b3c bc1b 383d 8f73 543d

exp_avg_sq f4 [8, 1, 1, 64]
0.77395785 0.7487468 0.7341458 0.71585035 0.6780001 0.6489676 0.63111913 0.6094514
0.59334123 0.58699596 0.580914 0.57267094 0.5701862 0.5726335 0.57649136 0.58162194
0.5856809 0.58714557 0.5850271 0.579731 0.57413083 0.5671835 0.56164587 0.5593933
0.55699444 0.5553436 0.55338883 0.5506763 0.54653823 0.5393256 0.53430796 0.5299977
0.5268669 0.5270354 0.5239636 0.5215399 0.5215784 0.51846236 0.5158739 0.51573825
0.51568127 0.51442164 0.5123698 0.5110319 0.50981194 0.5092165 0.50847167 0.5111982
0.5139312 0.5109929 0.51068336 0.5118839 0.51441824 0.5229678 0.52802956 0.5295673
0.5299036 0.5222241 0.5157947 0.5158569 0.5186745 0.5232329 0.5252738 0.52526504
0.3809978 0.34078553 0.33968258 0.3023299 0.26917854 0.2667612 0.25508073 0.2371072
0.2320123 0.22777699 0.22308822 0.22026561 0.2109095 0.20712002 0.20596553 0.1935043
0.18637998 0.18294202 0.17394277 0.16802512 0.16272573 0.1586893 0.15783241 0.15658584
0.15755904 0.16247031 0.1683305 0.17174992 0.17929246 0.190684 0.20185812 0.21795547
0.23304485 0.25561672 0.28619522 0.30055287 0.3235025 0.36455563 0.3825374 0.39718238
0.44249484 0.47887447 0.49297667 0.53556097 0.580112 0.5774552 0.5789153 0.59028155
0.5625689 0.5283166 0.51317006 0.48749828 0.4540175 0.43417296 0.4155342 0.3879413
0.36805728 0.35441336 0.3394157 0.33148673 0.3433817 0.3647147 0.38069552 0.43434966
1.0342413 0.85418105 0.7531048 0.64943904 0.51924753 0.4503447 0.41509193 0.3673976
0.34295613 0.33637285 0.33064586 0.33620587 0.33958018 0.34380037 0.35581025 0.35848176
0.35420173 0.35786396 0.36053982 0.36033076 0.36340925 0.36285824 0.36232892 0.3589915
0.3488803 0.34534484 0.3443045 0.35135928 0.36429873 0.36033243 0.36254472 0.36917531
0.35497847 0.34492052 0.34333953 0.3329887 0.32478914 0.32127804 0.32204565 0.32121667
0.32803982 0.34941334 0.3542435 0.35667023 0.36915064 0.357299 0.334726 0.3257125
0.3164404 0.31115124 0.31362808 0.31418285 0.32616898 0.33616635 0.32465088 0.32472938
0.3305968 0.32066867 0.31817523 0.32035184 0.31726593 0.3183119 0.31569317 0.31647697
0.49011222 0.48432222 0.44671798 0.43440288 0.43635756 0.4127558 0.39778325 0.3979809
0.3800866 0.35460016 0.33945644 0.32322276 0.30420968 0.29384702 0.28968513 0.2831412
0.27922064 0.27679738 0.27091184 0.26781675 0.26372176 0.26191643 0.26644304 0.26598057
0.26090467 0.26342574 0.26391277 0.25208846 0.24793933 0.24988197 0.23995288 0.23528025
0.2369413 0.23448902 0.23754874 0.24065906 0.2474576 0.26167822 0.27574787 0.29818666
0.3237514 0.3505513 0.37928078 0.39674988 0.4011825 0.40151775 0.39192832 0.3715974
0.35331118 0.33783334 0.32427055 0.31467503 0.30613327 0.30088058 0.2987606 0.2975635
0.30167228 0.30582917 0.31287482 0.3269256 0.33620816 0.347755 0.36473292 0.3760974
00000000: 1a22 463f dfad 3f3f fbf0 3b3f f841 373f
00000010: 6a91 2d3f be22 263f 0691 213f 0205 1c3f
00000020: 36e5 173f 5e45 163f c8b6 143f 909a 123f
00000030: b9f7 113f 1c98 123f f094 133f 2de5 143f
00000040: 2fef 153f 2c4f 163f 56c4 153f 4069 143f
00000050: 3dfa 123f f032 113f 06c8 0f3f 6634 0f3f
00000060: 3097 0e3f 002b 0e3f e4aa 0d3f 1ff9 0c3f
00000070: eee9 0b3f 3e11 0a3f 68c8 083f eead 073f
00000080: c0e0 063f cbeb 063f 7a22 063f a483 053f
00000090: 2986 053f f3b9 043f 5010 043f 6c07 043f
000000a0: b003 043f 23b1 033f ab2a 033f fdd2 023f
000000b0: 0983 023f 035c 023f 332b 023f e3dd 023f
000000c0: ff90 033f 6ed0 023f 25bc 023f d30a 033f
000000d0: eab0 033f 38e1 053f f22c 073f b991 073f
000000e0: c3a7 073f 7bb0 053f 1f0b 043f 330f 043f
000000f0: dac7 043f 97f2 053f 5878 063f c577 063f
00000100: 2512 c33e 717b ae3e e0ea ad3e fcca 9a3e
00000110: c5d1 893e ed94 883e f199 823e 3bcc 723e
00000120: a294 6d3e 5f3e 693e 3d71 643e 4f8d 613e
00000130: a9f8 573e 4517 543e a1e8 523e fe25 463e
00000140: 65da 3e3e 2755 3b3e 0e1e 323e c70e 2c3e
00000150: 93a1 263e 737f 223e d29e 213e 0a58 203e
00000160: 2857 213e 9e5e 263e d55e 2c3e 36df 2f3e
00000170: 7198 373e ab42 433e e5b3 4e3e b82f 5f3e
00000180: 4fa3 6e3e 32e0 823e 2e88 923e 11e2 993e
00000190: 1fa2 a53e 09a7 ba3e f1db c33e 7d5b cb3e
000001a0: af8e e23e 092f f53e 7067 fc3e 861a 093f
000001b0: 3882 143f 1bd4 133f cb33 143f b11c 173f
000001c0: 8404 103f c23f 073f 1d5f 033f 6099 f93e
000001d0: fb74 e83e eb4b de3e e6c0 d43e 3ea0 c63e
000001e0: 0172 bc3e ab75 b53e e5c7 ad3e a1b8 a93e
000001f0: bacf af3e e3bb ba3e 86ea c23e 1463 de3e
00000200: 0562 843f 9cab 5a3f 7acb 403f a341 263f
00000210: 68ed 043f 9593 e63e ee86 d43e 8a1b bc3e
00000220: f297 af3e 1039 ac3e 6a4a a93e 2d23 ac3e
00000230: 74dd ad3e 9a06 b03e c32c b63e ec8a b73e
00000240: ee59 b53e f239 b73e ad98 b83e 467d b83e
00000250: c710 ba3e 8ec8 b93e 2d83 b93e bccd b73e
00000260: 70a0 b23e 0ad1 b03e ae48 b03e 5de5 b33e
00000270: 5d85 ba3e 7e7d b83e 769f b93e 8c04 bd3e
00000280: bdbf b53e 6c99 b03e 33ca af3e 7f7d aa3e
00000290: c34a a63e 8e7e a43e 2be3 a43e 8376 a43e
000002a0: d6f4 a73e 4ee6 b23e 675f b53e 7b9d b63e
000002b0: 5001 bd3e e5ef b63e 3561 ab3e cac3 a63e
000002c0: 7a04 a23e 374f 9f3e dc93 a03e 93dc a03e
000002d0: 9fff a63e ff1d ac3e a438 a63e ee42 a63e
000002e0: fc43 a93e af2e a43e dde7 a23e 2805 a43e
000002f0: ae70 a23e c7f9 a23e 89a2 a13e 4509 a23e
00000300: fdef fa3e 15f9 f73e 38b8 e43e 0e6a de3e
00000310: 426a df3e ba54 d33e 3faa cb3e 27c4 cb3e
00000320: b69a c23e 278e b53e 3ccd ad3e 747d a53e
00000330: 5fc1 9b3e 1e73 963e 9c51 943e e2f7 903e
00000340: 02f6 8e3e 63b8 8d3e f5b4 8a3e 471f 893e
00000350: 8a06 873e e919 863e 396b 883e 9b2e 883e
00000360: 4c95 853e bddf 863e 931f 873e bd11 813e
00000370: cfe3 7d3e 0fe1 7f3e 35b6 753e 4eed 703e
00000380: bda0 723e e41d 703e fa3f 733e 546f 763e
00000390: 8665 7d3e b0fa 853e d32e 8d3e ecab 983e
000003a0: bec2 a53e 767b b33e 1731 c23e cd22 cb3e
000003b0: cb67 cd3e bc93 cd3e d4aa c83e 0442 be3e
000003c0: 34e5 b43e 7ef8 ac3e ca06 a63e 161d a13e
000003d0: 80bd 9c3e 050d 9a3e 26f7 983e 3e5a 983e
000003e0: ca74 9a3e a495 9c3e 2131 a03e cb62 a73e
000003f0: 7a23 ac3e f20c b23e 46be ba3e d78f c03e

exp_avg f4 [8]
-1.2137698e-05 1.1284671e-06 3.4892623e-06 -7.437095e-06 2.4125425e-06 -5.1109505e-06 -2.535209e-06 9.725829e-07
00000000: 04a3 4bb7 d675 9735 1229 6a36 298c f9b6
00000010: 2ae7 2136 bb7e abb6 8f22 2ab6 b289 8235

exp_avg_sq f4 [8]
2.8317224e-10 1.02654156e-10 2.0603713e-10 1.560424e-10 1.4942059e-10 8.767444e-11 4.329564e-11 3.1761784e-11
00000000: f3ac 9b2f 27bd e12e 4c8a 622f 0892 2b2f
00000010: 284a 242f 52cc c02e 8f6a 3e2e 97b0 0b2e

exp_avg f4 [8]
3.370438e-06 2.106969e-06 -1.7415608e-06 1.874499e-06 1.0678685e-06 4.1479205e-07 -6.796982e-08 2.4784772e-06
00000000: af2f 6236 7465 0d36 93bf e9b5 4c97 fb35
00000010: af53 8f35 96b0 de34 cef6 91b3 ea53 2636

exp_avg_sq f4 [8]
2.8983057e-11 1.0707929e-10 1.07195905e-10 1.8097359e-11 1.3262247e-10 3.427948e-11 6.962919e-11 2.1479275e-11
00000000: 0bf0 fe2d 4878 eb2e eeb9 eb2e a12f 9f2d
00000010: e8d1 112f 43c3 162e c01d 992e 07ef bc2d

exp_avg f4 [16, 1, 37, 1]
-0.021730423 0.07877227 -0.084456295 -0.13994925 0.05812752 -0.04696625 -0.020766087 -0.062906794
0.05608583 -0.042208537 -0.082602374 0.04021467 0.07713154 -0.0072035445 -0.07317848 0.059363633
-0.040260743 -0.023728063 -0.009453297 0.04819768 -0.20026429 0.042149406 0.032486603 0.024482908
-0.04652093 0.1543611 0.025859153 -0.17745537 -0.148379 0.14300714 0.11830804 -0.017485494
-0.02561173 0.08099653 0.26293224 0.029076666 0.03837365 -0.01640312 -0.00057876424 0.009369135
0.0060476745 0.02566475 0.02021365 0.03893109 0.03406952 -0.008356974 -0.023096303 -0.008862308
-0.027249234 -0.030196516 -0.04500787 -0.029624226 0.010195288 0.008056059 0.0040330165 0.015316712
-0.055036336 -0.06369481 -0.0070657334 0.00897711 -0.04779624 -0.010239668 -0.04956096 -0.021675443
-0.08783926 -0.10299638 -0.025050655 -0.007455652 0.016265035 -0.056301545 -0.010514487 0.020884225
-0.040993452 -0.0152942585 -0.03385757 -0.035501257 -0.050327796 -0.010799323 0.011745523 0.010968417
0.027294446 0.034083676 -0.06765522 -0.045812346 0.03575592 0.002479826 -0.009811019 -0.05911379
-0.0068801194 -0.0037742562 -0.060419906 0.003597651 0.104611844 -0.19063163 -0.17031679 -0.1026614
-0.027864276 0.015283579 0.0077260328 -0.03390158 -0.15805304 -0.16556267 -0.1516911 0.029132392
-0.09995965 -0.15374768 -0.050045434 -0.061015837 -0.13350116 -0.120887004 -0.1185286 0.0146700265
0.07202786 0.036490407 -0.0007620728 -0.0017024896 -0.009782582 0.068741366 0.0033058533 0.06476287
0.03888038 0.010132084 -0.013159196 -0.03477921 -0.031468038 -0.002830182 -0.09763148 -0.12152589
0.01425562 0.14696042 0.08002325 -0.04157572 -0.09626535 -0.11165156 -0.02213818 0.003813307
-0.0028973608 -0.07432214 -0.09631434 -0.015940888 -0.011107593 -0.052911345 -0.14520854 -0.03824547
-0.035842225 -0.014436105 -0.06724577 -0.029689247 0.024185603 0.029853601 0.022159256 -0.0029493847
0.05874827 0.058175214 0.09157158 0.013005089 0.010502008 -0.047497697 -0.022336157 -0.0034666567
-0.0034144043 -0.017568743 -0.008754836 0.018044475 0.030709755 0.025203092 0.0132328905 0.0036095418
-0.11970641 -0.05280381 0.010506212 0.14612803 0.0061092903 -0.055708896 0.015242541 -0.04176562
-0.0683041 -0.029584177 -0.0024759886 0.015975296 -0.057415385 -0.043514907 0.0021031266 -0.04812428
-0.030723408 -0.013483089 -0.051444322 0.00418302 0.016176583 0.06992258 0.14091744 0.13521926
0.07476068 -0.062510595 -0.047423057 0.028847331 -0.032674223 0.022934478 -0.032129135 -0.026255598
-0.038379487 0.061828975 0.056701887 0.06744749 0.08759521 0.007140067 -0.023388715 0.034445144
0.09436055 0.006129726 0.02804719 -0.00011999833 0.045893144 0.12585038 0.00935307 -0.13112564
-0.021466676 0.057668954 0.042491492 -0.0066724117 -0.1811251 -0.019954558 0.09994947 0.040587146
0.060520083 0.029203186 0.027370384 0.087286614 0.08197269 0.08875122 0.06289008 0.02997622
0.030694647 0.057755534 0.06797169 0.06620019 0.0953621 0.09518447 -0.03041594 -0.11304635
0.06540493 0.18200137 0.17076863 0.05299278 -0.033193458 -0.008473836 0.05427637 -0.031640068
0.12000414 0.024531974 -0.05240238 0.16360621 0.08655547 -0.19241978 -0.063128196 0.038087007
00000000: 0004 b2bc 5b53 a13d 6cf7 acbd db4e 0fbe
00000010: 1f17 6e3d af5f 40bd a41d aabc 47d5 80bd
00000020: 41ba 653d dce2 2cbd 6f2b a9bd 23b8 243d
00000030: 24f7 9d3d b60b ecbb 99de 95bd 4827 733d
00000040: 73e8 24bd 5b61 c2bc 00e2 1abc ee6a 453d
00000050: 1512 4dbe dba4 2c3d ac10 053d 6190 c83c
00000060: bb8c 3ebd d610 1e3e 93d6 d33c dcb6 35be
00000070: aaf0 17be 7770 123e 7c4b f23d bd3d 8fbc
00000080: b1cf d1bc 82e1 a53d 0e9f 863e 3032 ee3c
00000090: b02d 1d3d d65f 86bc 36b8 17ba 0081 193c
000000a0: 922b c63b e23e d23c 1997 a53c 3576 1f3d
000000b0: 7b8c 0b3d b1eb 08bc 7534 bdbc 3733 11bc
000000c0: c939 dfbc af5e f7bc 2c5a 38bd 81ae f2bc
000000d0: 230a 273c 8ffd 033c 6527 843b f2f2 7a3c
000000e0: c86d 61bd 6d72 82bd ab87 e7bb ba14 133c
000000f0: fdc5 43bd 48c4 27bc 6f00 4bbd b390 b1bc
00000100: 12e5 b3bd c4ef d2bd 0837 cdbc 8b4e f4bb
00000110: 403e 853c 739c 66bd f444 2cbc 6515 ab3c
00000120: c0e8 27bd c594 7abc 3cae 0abd c469 11bd
00000130: 8524 4ebd a5ef 30bc 4b70 403c e0b4 333c
00000140: 9a98 df3c 539b 0b3d d28e 8abd baa5 3bbd
00000150: cd74 123d 9484 223b 65be 20bc 4d21 72bd
00000160: a072 e1bb 8359 77bb dd7a 77bd 91c6 6b3b
00000170: bc3e d63d f034 43be 8667 2ebe 2440 d2bd
00000180: 9f43 e4bc fa67 7a3c a92a fd3b 62dc 0abd
00000190: a8d8 21be 4389 29be e954 1bbe 0ea7 ee3c
000001a0: a5b7 ccbd 0870 1dbe 71fc 4cbd beeb 79bd
000001b0: 87b4 08be 9b93 f7bd 1fbf f2bd 8d5a 703c
000001c0: 5883 933d f776 153d d7c5 47ba 1226 dfba
000001d0: 1f47 20bc 46c8 8c3d 04a7 583b 65a2 843d
000001e0: 0941 1f3d 0a01 263c ab99 57bc a574 0ebd
000001f0: a1e4 00bd 937a 39bb 03f3 c7bd 91e2 f8bd
00000200: 6790 693c cb7c 163e 3be3 a33d 4d4b 2abd
00000210: c526 c5bd 93a9 e4bd 215b b5bc ade8 793b
00000220: a6e1 3dbb 3536 98bd 7440 c5bd 7796 82bc
00000230: 9ffc 35bc 91b9 58bd 8cb1 14be 48a7 1cbd
00000240: 4ccf 12bd 6a85 6cbc 26b8 89bd dd36 f3bc
00000250: e320 c63c 8a8f f43c 5487 b53c 774a 41bb
00000260: 07a2 703d 2249 6e3d e189 bb3d 4c13 553c
00000270: 9d10 2c3c f28c 42bd 51fa b6bc d930 63bb
00000280: 33c4 5fbb 53ec 8fbc 7270 0fbc 02d2 933c
00000290: 0693 fb3c b776 ce3c c4ce 583c 108e 6c3b
000002a0: a228 f5bd cf48 58bd 3f22 2c3c 96a2 153e
000002b0: 7130 c83b 032f 64bd dabb 793c 6d12 2bbd
000002c0: 05e3 8bbd 845a f2bc 3244 22bb a0de 823c
000002d0: 652c 6bbd b03c 32bd 9cd4 093b f71d 45bd
000002e0: a8af fbbc 2de8 5cbc 48b7 52bd b711 893b
000002f0: c184 843c 9233 8f3d a94c 103e eb76 0a3e
00000300: 211c 993d 8e05 80bd ae3e 42bd 3d51 ec3c
00000310: 68d5 05bd 16e1 bb3c d799 03bd fb15 d7bc
00000320: cf33 1dbd 6140 7d3d 3d40 683d e921 8a3d
00000330: 1e65 b33d 39f7 e93b b199 bfbc 5a16 0d3d
00000340: 1b40 c13d dedb c83b 38c3 e53c 9da7 fbb8
00000350: 73fa 3b3d ecde 003e 9e3d 193c cd45 06be
00000360: e2da afbc 4836 6c3d 8f0b 2e3d 3fa4 dabb
00000370: dc78 39be be77 a3bc 4fb2 cc3d b53e 263d
00000380: e8e3 773d 853b ef3c db37 e03c 53c3 b23d
00000390: 4ce1 a73d 33c3 b53d 84cc 803d b190 f53c
000003a0: 5773 fb3c 1191 6c3d be34 8b3d f793 873d
000003b0: 344d c33d 13f0 c23d d92a f9bc d884 e7bd
000003c0: 05f3 853d 915e 3a3e f9dd 2e3e f50e 593d
000003d0: ddf5 07bd d8d5 0abc e650 5e3d 0499 01bd
000003e0: bbc4 f53d 47f7 c83c e1a3 56bd 6388 273e
000003f0: ff43 b13d b109 45be 5b49 81bd 1f01 1c3d
