checkpoint_dir/Learning_rate_grid_search/eeg_checkpoint_model_ultra_low_lr.pth.tar (torch, 190501 bytes, 39 tensors)

conv1.weight f4 [8, 1, 1, 64]
00000000: 0416 fe3d ee1f f83d c95d 92bc 17c7 113e
00000010: ffc5 11bb 7fb9 123d aebe 1fbd b3eb ca3d
00000020: bc8d e83d 32bf b4bd 7977 003e b799 cc3c
00000030: 1ce7 b43d a563 f93c 8c8d 943d 3f70 5cbc
00000040: 922e e63d ced1 243d ec46 31bd d5c8 513d
00000050: 0eb1 f8bc 6360 1b3c a4ae e0bc 4106 e83d
00000060: be87 8cbd 66ad 02bd dcee c4bb 7e04 3abd
00000070: 2b30 093d 0a59 d5bd 9400 083e 4184 c4bd
00000080: c755 ca3d 9469 cb3c 51a9 2ebd 8fbb 863d
00000090: af8c 303c 1c1c c03d 6f79 feb8 37f7 52bd
000000a0: 0c00 dd3c 48dd 3abd 4a49 1c3d 7128 d33d
000000b0: c9ab 803d a052 8bbd 430c 853d 1695 a13c
000000c0: 9fd2 6a3d 6bf8 a1bd e3a4 f7bd 0b6f 4fbd
000000d0: f742 d2bd 61fa c83d d4b2 d93c 8935 0d3d
000000e0: 7cf5 c63c 7f09 86bc 39f4 9f3d 4ec8 dabd
000000f0: 6f1f a0bb 8b8c d0bd a34a a33c 0cb9 69bd
00000100: cfbe 2d3d b153 4ebc f023 fe3d 7b9d 94bd
00000110: c120 92bd 3ef9 5dbd 9afd f63d a7bb 223d
00000120: 7678 0c3e b642 b6bd 696a 05be 8082 bcbd
00000130: d582 8fbd f126 2c3d d4a8 1a3d a71c f03d
00000140: 253b 85bd 4fd4 c7bd 0e4d 9a3d 3e38 3dbd
00000150: 5a52 603d b3cf 18bd 9821 993d bbb2 f2bd
00000160: 710b a5bd cf83 3e3d 342f 9e3c 6466 59bd
00000170: f36a a53d 87df b33d fa53 f1bd a9f3 93bd
00000180: 9810 033e aac1 6bbd 2944 48bd f64b b2bd
00000190: a320 50bd c5c8 0e3d 1b0d d63c 5284 44bd
000001a0: 5266 023c 331d 40bd 89e8 53bd 8b14 4fbd
000001b0: 07c4 aebd 3385 c8bc 2e92 243e bd95 0d3d
000001c0: 6704 b23d 051e 93bd 58c6 a5bd 882a 1dbc
000001d0: d73f 883d 1598 cbbd 1831 13bd bb25 d7bc
000001e0: 6629 023d 6829 10bd fb48 073d 9835 45bd
000001f0: ab95 adbd 2f67 59bd cc7e 6abc e209 d7bd
00000200: 47d2 5d3d 36dd 8dbd aefb 763d efc9 11bc
00000210: 486b 11be b8da 663d e35a 8abd 6e2c 89bd
00000220: 0a0f ddbd 5d60 0ebe 1519 c13c 9eea c0bc
00000230: 8b88 323d 83c0 ebbd 8c60 c63d 0f72 b3bd
00000240: fcb7 05bd 22ff d13c acc8 983d 940c cb3d
00000250: 78c0 f43d 49af 95bd 2721 643d beb4 02bd
00000260: 0826 af3c bc29 6ebd e217 0e3e ac11 7abd
00000270: 2455 cf3d 9eae 853d 501e 773d a530 1bbd
00000280: ff80 093e 3f55 1d3d ff86 233d 79e2 b4bd
00000290: a678 6b3d f1f1 e7bb b66e 27bd efdb d83d
000002a0: 6699 ca3c a1ba 72bd 4565 85bd 813b 9ebc
000002b0: 69e5 8d3d c6ac 12bd 4911 bfbd 3269 72bd
000002c0: 9a81 d7bd ca06 613c 638d 813d 644a 10be
000002d0: 91f8 8fbb f153 ca3c 096f c1bb 05f5 93bd
000002e0: 48f4 e83c 4948 223d 30b8 0f3d c608 2cbd
000002f0: 999c 39bd 0369 c73c 61d8 6ebc 244e 06bd
00000300: f4ab cc3d b967 fc3d 37d0 163a 93d1 3fbc
00000310: cabc 9a3c da29 f43b 1017 443d 8588 633d
00000320: 76bf c3bd acf5 e3bc 014b 023e ba49 8f3d
00000330: dc42 723c c1d2 4bbd 7c1c 4ebd ca25 b8bd
00000340: 9b64 9dbc dcfe 7f3d aaba bf3d 929a 8d3d
00000350: 7869 c8bd 02b6 89bd 3930 8bbc 9a0a ff3d
00000360: 0e2f a23c 7c36 10bd 11bb 513d 61f1 39bd
00000370: 3ed2 a8bd 6ce6 b63d 9bf0 64bd 4e63 ebbc
00000380: 7e70 08be 2aa2 9c3d 3a82 af3d b318 ff3c
00000390: 5a7f ccbd 4856 0abe 77cc f8bd 3ec8 8c3d
000003a0: 248e 143d 1c5c 9d3d d872 0e3d 3ade 103c
000003b0: a5b1 93bc 4caa e3bd 129b e3bd af9a dfbd
000003c0: ba2b 5e3d 26ae 64bd abe0 06bc 3102 78bd
000003d0: c0e3 a5bc a97b 9fbd 9e3d 9dbd a050 f63c
000003e0: 32a1 30bd b1a7 a13d 4fe0 3abd 887c bebd
000003f0: 7869 42bc 607a 6ebd 7e37 3fbd a735 02be
0.12406543 0.12115465 -0.017866986 0.14236103 -0.002224326 0.035821434 -0.039000206 0.09908237
0.11355159 -0.0882553 0.12545575 0.02497564 0.08833143 0.030443022 0.072535604 -0.013454496
0.11239351 0.040239148 -0.043280527 0.05121692 -0.030357864 0.00948343 -0.027427025 0.11329318
-0.06861828 -0.031903647 -0.0060099196 -0.04541444 0.033493202 -0.104173735 0.1328147 -0.09595538
0.09879642 0.024830617 -0.04264194 0.06578743 0.010775729 0.093803614 -0.000121342826 -0.051505294
0.026977561 -0.045621186 0.03815583 0.10310448 0.062827654 -0.06802869 0.06496479 0.01972441
0.05732977 -0.0790871 -0.120919965 -0.05064301 -0.10266679 0.09813381 0.02657453 0.034474883
0.024286978 -0.01636195 0.07810254 -0.10682736 -0.0048865597 -0.101830564 0.01993305 -0.05706124
0.042418297 -0.012593196 0.12409198 -0.072565995 -0.071351536 -0.054192774 0.120600894 0.03972974
0.13717827 -0.08899443 -0.13028874 -0.092045784 -0.07007376 0.042029325 0.037758663 0.11724215
-0.065054215 -0.097572915 0.07534228 -0.046196215 0.054766037 -0.037307452 0.074771106 -0.118504964
-0.08058823 0.04651242 0.019309618 -0.053076163 0.080770396 0.08782869 -0.117835954 -0.07224209
0.12799299 -0.05755774 -0.048893128 -0.08705895 -0.050812375 0.034859437 0.026129296 -0.047977753
0.007958965 -0.046902847 -0.051735435 -0.0505567 -0.08533483 -0.024477577 0.16071388 0.03456663
0.08692246 -0.0718346 -0.08094472 -0.00959266 0.066528015 -0.09941117 -0.03593549 -0.026263108
0.031777762 -0.035195738 0.033028584 -0.048146814 -0.084758125 -0.05307692 -0.014312457 -0.10499932
0.054155614 -0.06926958 0.060298614 -0.008898242 -0.14201081 0.05636093 -0.067556165 -0.066979274
-0.10793884 -0.13903947 0.02357153 -0.023549374 0.04358725 -0.11511328 0.096863836 -0.08761989
-0.032646164 0.025634352 0.0746015 0.099145085 0.11950773 -0.073088236 0.05569568 -0.03191065
0.02138044 -0.05814527 0.13876298 -0.06105201 0.10123661 0.06527446 0.060331643 -0.037888188
0.13428114 0.038411375 0.039923664 -0.08832259 0.057488106 -0.007078402 -0.040877067 0.10588824
0.02473135 -0.059260014 -0.06513456 -0.019315483 0.06928522 -0.0358093 -0.09329469 -0.059182353
-0.105227664 0.013734529 0.063257955 -0.14090878 -0.004393645 0.02469823 -0.005903129 -0.07224468
0.028436795 0.039619718 0.035087764 -0.042000555 -0.04531536 0.024342066 -0.014577956 -0.032789364
0.09993735 0.12324471 0.00057530723 -0.011707681 0.01888885 0.007451278 0.047873557 0.055550117
-0.09558003 -0.027827106 0.12723924 0.06996484 0.014786448 -0.049761537 -0.050320134 -0.08991583
-0.019213011 0.062498912 0.09361775 0.069142476 -0.097857416 -0.06724168 -0.016990768 0.12453194
0.019797828 -0.03520821 0.05120379 -0.045396212 -0.082432255 0.08930668 -0.05589352 -0.028733876
-0.13324162 0.07648118 0.085697606 0.031139707 -0.09985228 -0.13509476 -0.121483736 0.06874131
0.03626837 0.07683584 0.034777492 0.008842045 -0.018029043 -0.11116466 -0.11113562 -0.109181754
0.05424092 -0.055830143 -0.008232276 -0.060548965 -0.020250201 -0.07787258 -0.07677768 0.030067742
-0.043122478 0.07893313 -0.045624074 -0.09301096 -0.011865966 -0.058222175 -0.04668378 -0.12715779

batchnorm1.weight f4 [8]
00000000: 2402 813f adaa 853f 1f06 813f e61d 833f
00000010: f99f 853f a568 823f 3e9f 823f 6d21 823f
1.0078778 1.0442711 1.0079993 1.0243499 1.0439445 1.0188185 1.0204847 1.0166451

batchnorm1.bias f4 [8]
00000000: 232c 8eba 76c0 1a38 03d9 c5ba 0da2 c33a
00000010: ce00 93ba 2621 7d39 6222 0cba 1d5d 663a
-0.0010846894 3.6895704e-05 -0.0015094582 0.0014925614 -0.001121545 0.00024140309 -0.00053456996 0.00087876787

batchnorm1.running_mean f4 [8]
00000000: 29c6 13ba 35d6 e537 a560 03b9 b924 63b9
00000010: a0c5 9139 dd7b 193a 8b68 2e39 ca19 d937
-0.0005637133 2.7398675e-05 -0.00012529136 -0.00021662087 0.00027803797 0.0005854944 0.00016632878 2.5880425e-05

batchnorm1.running_var f4 [8]
00000000: 81aa ae3f 5d98 193f 7e1d c93e a689 9a3f
00000010: 87b0 583f 3da7 c03f 09a6 023e 3593 2e3f
1.3645784 0.5999811 0.39280313 1.2073257 0.8464436 1.5051037 0.1275865 0.6819337

depthwiseConv.weight f4 [16, 1, 37, 1]
00000000: 7c27 433d 5a5c 03be 937b f9bd 9ad5 28be
00000010: d7c6 fb3d 5801 0dbe 38b7 f03d c7e2 dabc
00000020: c169 4ebb 3094 5f3d 6eae 48bd 7d75 b53d
00000030: f3d0 003e e694 2abe 315f 8c3c 1b7f 1d3d
00000040: def6 063d bf5e a1ba a52c 8d3c 069e 7abd
00000050: f106 203c 5ecc 023e d183 223e 3ed8 033d
00000060: c53f f2bd 816c 29ba 9f8d 93bd 7678 e63d
00000070: 0524 f2bd 598f e33c c18d b53c 5cd6 903d
00000080: 653e 123e d0de 7a3d 2550 1b3e a09b d83d
00000090: 40fc 163e 1af3 72bd 4f83 f1bc 0343 a23d
000000a0: c252 3ebd 4a84 8f3d 8b78 36bd 598f 04be
000000b0: e136 443d fbb4 253d c674 a63d b083 213e
000000c0: 4d6c c33d d358 173e c5ea 1d3a c464 1cbe
000000d0: 742c 05be a485 c4bd a8a7 1abe ab23 b0bd
000000e0: 8ba1 0dbe e01b 0cbe 58d3 cabd 6e57 18be
000000f0: 578d bebd ce15 543d ce40 183e 0c5f 05bd
00000100: 52b9 bcbb ca12 bd3d bad3 c8bd 7781 84bd
00000110: fde1 e83d daf8 1fbe 3c02 683c 03af 213e
00000120: 9870 b73c 2d46 3a3d 79b7 8ebd bd52 143d
00000130: 15dc 683d ad3d 8c3d b8e9 c83d 1f4a 423e
00000140: e14f 84bd 057a 803d e89a 50bd 8f1b 05be
00000150: c888 693b a85e 22be a6aa e13d a16f 243d
00000160: 254e a5bd 1a28 9d3d c329 12be 9391 6dbd
00000170: 6241 0bbd 49db 19be 8346 07be 1f66 62bd
00000180: 6b46 e33d e01a 3c3e 055a 9a3d ab16 e9bd
00000190: c206 81bd 94b7 073e 60de 843d 3220 3b3c
000001a0: 96d8 243c 9069 01be 8018 50bd c5c9 103e
000001b0: b7fb d7bc 100f 963b e25e e8bd c246 5fbd
000001c0: 53ba 453d ba61 6cbd 4d33 223c 6eb3 de3d
000001d0: b2a2 07be adc4 b63d 9948 83bd 6e3e 17bd
000001e0: a733 6b3d 94a9 2e3e c8db 0dbd a604 a5bd
000001f0: 873c 1dbe cd3d b7bd 7113 18be 0c38 1ebd
00000200: 9dc3 103d e827 02be 0754 1e3e db3c e33d
00000210: b773 09be ec7b efbd f427 3d3d daba 45bd
00000220: deca bebc 74af 5bbd 1b4a 023e 98af 82bd
00000230: da3c 143e 4386 45bc d070 63bb 7d7e 0e3e
00000240: cf34 3ebd 9b2f bebd 08b0 86bd 788d 113e
00000250: 3d8c 8cbd b6e4 883d 91cb 10be d375 e23d
00000260: f310 a83d e7be 1a3d d176 973d 0a06 c43c
00000270: e2e9 d53d 1c13 b8bd 9842 86bc 6d43 063e
00000280: a765 243e 78ef 8e3d cf33 02be 3761 2c3e
00000290: 62b7 c4bc 58c3 68bd 7677 19be 2ec7 49bc
000002a0: 56f1 3f3e 0ee0 5a3d 164c 67bd 662a 463d
000002b0: 4c8b eebc 757e 393e 951a 08be 7a79 10bd
000002c0: 7654 b2bd 68f8 8e3b 5986 c73d 26e7 e73d
000002d0: 126a 4a3d 1550 413e 568a 2e3d d13c 513d
000002e0: 5c3d 003e 118d a53d 4751 e7bd aca2 1b3e
000002f0: 45d5 a13d 23c8 e9bd 83b9 ccbd e3c1 0ebe
00000300: fbe0 7b3c 7470 0dbe 009c 8a3d 718a 623d
00000310: 326d 49be 7ecd fd3c 65b1 563c 5709 bd3d
00000320: d689 393d 7602 34be 7fa7 253e ece8 e33d
00000330: 25b4 133d 5ece 59be a27b dfbd 29b2 afbd
00000340: e933 c8bc ba6c 313d 620c b33c 4fdd 153e
00000350: 8506 7abd 5fde 22bc 5d12 9cba 2bd7 23be
00000360: 5d37 eabd b3cd 08be 06c3 ad3d 1272 fbbd
00000370: 47f7 9bbd a97f 653d 13fa bf3d 7166 263e
00000380: ee36 00be d00b 0dbe c9c8 873d 1a7b c13d
00000390: 5363 723d c1fc f339 fe47 b23d 882a e23d
000003a0: d8c0 f6bd df63 d0bd e133 b83d bcd3 0bbe
000003b0: 53b1 e6bd 9a54 aa3d ae28 843c ae15 733c
000003c0: f001 a1bd 8be2 3d3c d6ff 2e3e 1a3f 3abd
000003d0: 2ccb 433c 79ec 903d f85d ecbd 4d3d 493e
000003e0: 3419 3fbd 1d84 b4bb 8588 09bd 3cf0 05be
000003f0: 23b1 26be 8459 973d 4da8 593d 1682 22be
0.047645077 -0.12828198 -0.12181773 -0.16487733 0.12293785 -0.13770044 0.11753696 -0.026719464
-0.003149614 0.054584682 -0.048994474 0.088603 0.12579708 -0.16658363 0.017135235 0.038451295
0.032950275 -0.0012311562 0.017233202 -0.06118586 0.00976728 0.12773272 0.15870596 0.032188646
-0.11828569 -0.0006463007 -0.072047465 0.11253445 -0.118232764 0.027778314 0.02216232 0.07072136
0.14281614 0.061247647 0.15167291 0.10576558 0.14744663 -0.05931387 -0.029481558 0.07922938
-0.046465643 0.07007654 -0.044548552 -0.12945308 0.0479039 0.0404558 0.081277415 0.15772891
0.09542141 0.14779978 0.0006024058 -0.15272814 -0.13005239 -0.095958024 -0.15103018 -0.08600553
-0.13831155 -0.13682508 -0.09903592 -0.14877102 -0.09304302 0.051778607 0.14868471 -0.032561347
-0.0057593966 0.09232099 -0.09806009 -0.06470006 0.11371229 -0.15622273 0.014160689 0.15789418
0.022392556 0.04547708 -0.069685884 0.036211718 0.05685051 0.06847701 0.09810203 0.18973587
-0.06460548 0.062732734 -0.05092898 -0.12998794 0.0035634506 -0.15856421 0.11018877 0.04014552
-0.080715455 0.076736644 -0.14273743 -0.05800016 -0.0339979 -0.15025057 -0.13210492 -0.05527317
0.110974155 0.18369627 0.07536701 -0.11381277 -0.06300117 0.13253623 0.06487727 0.01142125
0.010061404 -0.12637925 -0.050804615 0.14139469 -0.026365144 0.0045794323 -0.113462225 -0.05451084
0.048273396 -0.057710387 0.009899926 0.10874067 -0.13245657 0.08924232 -0.06410331 -0.036924772
0.057422306 0.17056876 -0.034633428 -0.08057527 -0.1535512 -0.089473344 -0.14851166 -0.03862767
0.0353428 -0.12710536 0.15461741 0.11095592 -0.13423048 -0.11693558 0.04618068 -0.0482739
-0.023290094 -0.053634122 0.12723581 -0.06381148 0.14476338 -0.012055936 -0.0034704693 0.13915439
-0.04643708 -0.09286424 -0.06576544 0.14214122 -0.06862686 0.06684248 -0.14140154 0.110576294
0.08206358 0.037779715 0.07395709 0.02392866 0.10445 -0.0898802 -0.016389176 0.13111658
0.16054402 0.06979269 -0.12715076 0.1683396 -0.024013225 -0.05682692 -0.14986977 -0.012315555
0.18744406 0.05343633 -0.056469046 0.048380278 -0.029119156 0.18114646 -0.1329139 -0.0352721
-0.08707516 0.0043631084 0.09742422 0.11323385 0.049417563 0.18878205 0.042612396 0.05108339
0.12523407 0.08083547 -0.11294799 0.15198773 0.07902006 -0.11415126 -0.09996321 -0.1394115
0.015373464 -0.13812429 0.06768036 0.05530781 -0.19670561 0.030981775 0.013103818 0.09230297
0.045297466 -0.17579064 0.16177176 0.11128411 0.03606047 -0.21270129 -0.10912253 -0.08578903
-0.024438815 0.04331658 0.02185649 0.14635204 -0.061041374 -0.009940713 -0.0011907328 -0.16000049
-0.11436341 -0.13359718 0.084844634 -0.122776166 -0.07615524 0.05602995 0.0937387 0.16250016
-0.12520954 -0.13774037 0.066300936 0.09447308 0.059176754 0.00046536888 0.08705138 0.110432684
-0.12048501 -0.10175299 0.0899427 -0.13654989 -0.11264291 0.08316918 0.016132679 0.014836712
-0.07861698 0.011589657 0.17089781 -0.045470335 0.011950295 0.070763536 -0.115413606 0.1965229
-0.046654895 -0.005508913 -0.03357746 -0.13079923 -0.1627851 0.073901206 0.05313902 -0.15869936

batchnorm2.weight f4 [16]
00000000: ee14 843f 74a7 7c3f f822 873f aee5 803f
00000010: 3523 823f cf7a 803f bd31 823f c82b 833f
00000020: 4748 863f 64e6 843f 5657 833f ced8 7c3f
00000030: f898 823f 6e9c 813f cd53 7c3f 0837 843f
1.0318887 0.98693013 1.0557547 1.0070093 1.0166994 1.0037478 1.0171429 1.0247736
1.0490807 1.038281 1.0261028 0.9876832 1.0202932 1.0125864 0.9856537 1.0329294

batchnorm2.bias f4 [16]
00000000: 64ce 93bd a5e5 e7bc 7c10 a5bd 1288 82bd
00000010: 4c20 8bbc ee07 febc 9fb8 82bd bd1f 89bd
00000020: 3d32 90bd d098 84bd 3e68 86bd 59a5 53bd
00000030: e79a 1dbd 509e 44bd d269 62bc 5780 93bd
-0.072171 -0.028307745 -0.08059785 -0.063736096 -0.016983174 -0.03100964 -0.0638287 -0.06695507
-0.07040832 -0.06474459 -0.06562851 -0.05167136 -0.038477805 -0.04800254 -0.013819175 -0.07202213

batchnorm2.running_mean f4 [16]
00000000: 5a5e 09ba 8378 8b39 c5ec 27ba b83e f8b9
00000010: 0d3c aaba 33b3 313a 83db 2db9 1f0b 323a
00000020: 0589 e73a cb8d a7ba 88ce 17b9 7a58 dbb8
00000030: 8bb4 c838 bd36 b439 9071 8e39 7e48 3e3a
-0.0005240195 0.00026601934 -0.0006405826 -0.00047348975 -0.0012987867 0.0006778717 -0.0001658034 0.00067918183
0.0017664736 -0.0012783346 -0.00014477421 -0.00010459214 9.570372e-05 0.0003437306 0.0002716896 0.0007258727

batchnorm2.running_var f4 [16]
00000000: 7440 fb3e ff50 413e 6f7b cd3e a6ae b83e
00000010: 8abf 863f 55b6 1f3f 14be a23e ff60 ac3e
00000020: c922 3b3f 90f4 3c3f ce1d 8c3e a59a cd3e
00000030: a6a5 5f3e 753b ec3e ce41 a33e f4af c83e
0.4907261 0.18878554 0.40133235 0.36070746 1.0527203 0.6238759 0.31785643 0.33667752
0.7309995 0.7381067 0.2736649 0.40157047 0.21840534 0.46139112 0.31886142 0.39196742

separableConv.weight f4 [16, 16, 1, 16]
00000000: 458b 63bc 4c2f 4a3d bd96 cd3c 6769 e83c
00000010: 85b2 433b 5c8f 1a3d 65e7 5abc f0ab 37bd
00000020: 84d2 0fbc cc9a 803d e6ff 2eba 97bc 063d
00000030: 9766 1bbc e809 723d a23c 4b3d 2e0e 0f3d
00000040: df96 04bd 5410 39bd b1a1 1d3c b6b4 ccbc
00000050: 10ef 6a3d cd8a 38bd cff3 103d 6ba0 883d
00000060: 0bbe 1d3d 493b ef3c f2c0 44bd 5283 7b3d
00000070: cb89 00bc c9e4 5ebd 5388 683d 65e6 e2bc
00000080: 883a e7bc 285a f73c 6a76 81bd 0b64 7cbd
00000090: 54dc 0bbc e348 c0bc 5dbe 9b39 6ccd 6dbd
000000a0: 468f 87bb d79d e9bc c747 e7bc dd4b 4cbd
000000b0: c2ac 1a3d 455d ab3c e63f 1abd 569e 793d
000000c0: 4e48 693c c40a 503b c139 3cbd e057 53bb
000000d0: 4cce 333d 6452 cb3c 09f7 82bd a523 0f3d
000000e0: a854 6bbc 2dd8 1d3c 12d8 db3c ab4f fa3c
000000f0: d652 83bd 7ca4 103d 4cd8 54bd faf5 80bb
00000100: 17e5 3fbd fabc aebc de99 65bc 1b40 a3bc
00000110: 7ee6 a8bc 4407 22bc ea4d 003d 0fef df3b
00000120: 757d 023c d62d cbba 5130 903c 5e7b e8bc
00000130: d718 8cbc 6c8e 89bb d078 58bd 685e 51bd
00000140: 82ec d8bb e149 08bd 1b7b 5ebc bee2 c4bc
00000150: ae88 0fbc e965 453c 35cd 27bd b72e a13c
00000160: d82a 993c 7224 74bd 065a 65bd 18eb 6dbd
00000170: 8b8d 48bd c36c 3dbd df74 19bd 431b 54bd
00000180: 7482 4ebd f6ec 06bd 54ac f7bc f95f 5f3d
00000190: d3f6 bdbc 24e6 23bd a2eb f93c 8a4e 583b
000001a0: 2192 5e3d e74c 3e3d 2656 843d 831a 05bd
000001b0: 4501 4a3d b45d 793d ed2c 93bc 1222 873d
000001c0: 58db 593d d066 e03b bfd5 083d 67b5 87bc
000001d0: 166f 48bd 0134 873c fbda 963c 4e60 20bd
000001e0: 89cb f33c f3ea 4cbd 953b 593d 6661 773d
000001f0: 7760 ad3c 6e1e f1bc 8c6f 253d 3975 b83c
00000200: b02d 0c3d 6107 2e3d c633 983d 5f16 c03b
00000210: fe66 863c 8979 323d c284 f93c e6d0 853d
00000220: 0dc5 98bc 20e4 c23b a960 803c e69b 81bc
00000230: 85b3 153d 7cf6 073b a0ee 71bd 649e 6dbc
00000240: 791b 56bd b90c 82bc 15ba a1bc d1de 71bd
00000250: 9ee6 49bc a93e 03bc 13bb b2bc 50a3 303d
00000260: b1e4 c0bc eeff bd3c f429 34b8 0f1e 7fbd
00000270: f9d6 263b cbf7 273d ecb1 17bd d581 f8bc
00000280: c0f3 623d 55c6 383d cb94 0ebd 08f2 1a3d
00000290: 17f4 48bb 95f2 53bd cec5 7f3c 2c65 053d
000002a0: 3af1 a4bb fae9 0b3d b557 28bd 5c6b 493d
000002b0: 1f3e 623d 3d02 0c3d 508b 183c f147 8e3c
000002c0: 8f6b 09bd d7c0 84bb ab97 b63b 2505 bdbc
000002d0: 6759 0ebd 788a 493d 67da 443d d562 46bd
000002e0: 0103 b53c 7ce2 c63c 02db 5f3d 67f5 013d
000002f0: ada3 533d d996 b4bc 0dda 203d e63e 413d
00000300: 2148 85bd eb1a 61bd aed6 823a ca09 cb3c
00000310: e610 00bd 86f4 543b 84bd 7eba 366f 593c
00000320: 128f f6bc 0439 023d b9d9 103d d5d1 28bd
00000330: d9d8 c7ba aeb0 dcba c01b 8f3c e153 553d
00000340: 572a 0b3d f0a0 c33a 26b8 863d 4310 8cbc
00000350: acf6 75bc ec4e 3c3b 1255 4bbd 415a a3ba
00000360: 56b3 41bd ed58 a8ba be8c 74bb eda8 b03a
00000370: c1ee 5ebd 25bc 7cbd e0fc 563c 3ae3 023d
00000380: ad19 85bd f48c 9e3b 90ea 5bbd fa6d 9cbb
00000390: 6b78 383d 1398 183d d35c 2cbd 3496 103d
000003a0: 91e0 023d fedc 123b e136 693d c551 adbc
000003b0: ae29 51bc 3859 eebc 4a38 ba3b ead8 f23b
000003c0: a305 5e3c d1fb 94bc 3403 70bc b0b5 e53c
000003d0: d734 27bd 207d acbb be56 7cbb 8770 03bd
000003e0: e88e ee3b cc7c 73bc e832 713c 7d14 0bbd
000003f0: c89b 85bd b56e 133c c8fb a4bc 4160 1ebd
-0.013888185 0.049361512 0.025096292 0.028370572 0.0029861045 0.037734374 -0.013360833 -0.044841707
-0.008778218 0.06279525 -0.0006675705 0.032894697 -0.009484909 0.05909148 0.04961837 0.034925632
-0.032370444 -0.045181587 0.00962107 -0.024988513 0.057356894 -0.045054246 0.035388764 0.06671222
0.038511317 0.029203074 -0.04803557 0.061404534 -0.007845352 -0.054417405 0.056770634 -0.027697751
-0.028226152 0.030194357 -0.06321414 -0.061618846 -0.008536417 -0.023472255 0.00029705736 -0.058057234
-0.0041369526 -0.028517647 -0.028232468 -0.049877036 0.03776241 0.020918498 -0.037658595 0.060942017
0.01423843 0.0031744698 -0.045953516 -0.0032248423 0.043897912 0.02481956 -0.063947745 0.034946103
-0.014363445 0.00963406 0.026836429 0.030555567 -0.06412284 0.035313115 -0.05196409 -0.0039355727
-0.046849336 -0.021330345 -0.014013736 -0.019928029 -0.02061772 -0.009889428 0.031324305 0.006833918
0.007964482 -0.0015501331 0.017601164 -0.028379139 -0.017101688 -0.004197886 -0.05284959 -0.051115423
-0.006619991 -0.03327358 -0.013579155 -0.0240339 -0.008760614 0.012048223 -0.040967185 0.019675596
0.018697187 -0.05960507 -0.055994056 -0.05808553 -0.04896311 -0.0462463 -0.037464973 -0.05178381
-0.05041738 -0.032940827 -0.03023354 0.054534886 -0.023188984 -0.0400144 0.030507866 0.0033005797
0.054338578 0.04646006 0.06461744 -0.032495987 0.049317617 0.060880378 -0.017965758 0.06598295
0.053187698 0.0068481937 0.03340697 -0.016565992 -0.048934065 0.01650429 0.018414965 -0.039154343
0.029760139 -0.050028753 0.053035337 0.06039562 0.021164162 -0.029433455 0.040389583 0.022516834
0.03422326 0.042487506 0.0743175 0.005862042 0.016406532 0.043572936 0.030458812 0.06533985
-0.018648649 0.005947605 0.015671091 -0.015821408 0.036548156 0.0020746281 -0.05906546 -0.014503095
-0.052272294 -0.015875207 -0.019742051 -0.059050385 -0.01232305 -0.008010545 -0.02181772 0.043124497
-0.023546549 0.023193326 -4.2954416e-05 -0.062284525 0.0025457724 0.0410078 -0.037034914 -0.030335346
0.05540824 0.04511102 -0.03480987 0.037828475 -0.0030663067 -0.051745016 0.015611125 0.03256719
-0.0050336393 0.034158684 -0.04109927 0.04917465 0.055235025 0.034181822 0.009310558 0.017368289
-0.03354984 -0.0040513086 0.0055722794 -0.023073742 -0.03475323 0.04920432 0.048059847 -0.048434097
0.022096159 0.024277918 0.05465222 0.031728175 0.051669765 -0.022044586 0.03927045 0.047179125
-0.06507898 -0.05495731 0.0009982192 0.024784941 -0.031266116 0.003249438 -0.0009717571 0.013271144
-0.030097518 0.031792656 0.035363887 -0.041215736 -0.0015247121 -0.0016837323 0.017469287 0.052081946
0.033975925 0.0014925282 0.06578092 -0.017097598 -0.015012424 0.0028733565 -0.049641676 -0.0012462811
-0.04729017 -0.0012843885 -0.0037315334 0.0013478078 -0.054426912 -0.061702866 0.013121814 0.03195498
-0.06499038 0.0048385803 -0.053690493 -0.0047738524 0.045036715 0.037254404 -0.04208071 0.035299495
0.031952444 0.0022409554 0.056937102 -0.021157155 -0.012766285 -0.029095277 0.0056829797 0.007411112
0.013551149 -0.018186482 -0.014649201 0.028040737 -0.040821876 -0.0052639395 -0.003850385 -0.032089736
0.0072802193 -0.014861297 0.01472161 -0.033955086 -0.065238535 0.008998563 -0.02013959 -0.038666014

batchnorm3.weight f4 [16]
00000000: 7608 843f f1b8 833f 3053 843f c66b 863f
00000010: 690c 863f 19a8 833f 30e9 833f fa18 843f
00000020: c4dc 853f c213 843f e477 843f 3aee 843f
00000030: b13c 853f 371d 853f ac77 833f 92b7 833f
1.0315082 1.0290815 1.0337887 1.050164 1.0472537 1.0285674 1.0305538 1.0320122
1.0457997 1.031853 1.0349088 1.0385201 1.0409147 1.0399541 1.0270896 1.0290396

batchnorm3.bias f4 [16]
00000000: 363b 69bc cf78 c8bc 75c7 a8bc d6e5 a03c
00000010: 9955 b03a 85cf cbba c8eb b3bc 121e 853c
00000020: b28d 313c 7f9a 85bc e386 c1bc 66a8 22bb
00000030: c1bd 5fbc c50f 493c 592d b7bc 6d01 4fbb
-0.014235308 -0.024471669 -0.020602921 0.019640844 0.0013453244 -0.0015549517 -0.021963015 0.01624969
0.010837005 -0.016309021 -0.02362389 -0.0024819612 -0.013656081 0.012271826 -0.02236049 -0.0031586543

batchnorm3.running_mean f4 [16]
00000000: 2f50 94bc 6e02 623c 48ef f73c e9cb 2fbd
00000010: 034a 10be 1777 743d 5f4c 2abd 9bc8 81bc
00000020: 7c2a 273d e3da 39bd b897 5f3c d92d 643c
00000030: 75f4 c8ba d0a5 3ebe 3428 583d 22bd 753d
-0.01810464 0.013794525 0.030265465 -0.042919073 -0.14090733 0.059683885 -0.04157674 -0.015842726
0.040812 -0.045374762 0.013647012 0.013926947 -0.0015331643 -0.1861794 0.052772716 0.059994824

batchnorm3.running_var f4 [16]
00000000: c6b5 043f 01f4 d53e fe8d 143f b836 c63e
00000010: 0273 1a3f 2746 ee3e 9bf1 0c3f 65ff f03e
00000020: 4260 e23e 64fa 093f 7a4a 1f3f 2fc0 103f
00000030: db97 e93e af5b 083f 3eb1 083f c4bc f53e
0.51839864 0.41787723 0.5802916 0.38713622 0.6033174 0.46537897 0.5505616 0.4706985
0.44214064 0.5389769 0.6222302 0.5654325 0.4562367 0.532649 0.5339545 0.4799558

dense.weight f4 [6, 1488]
00000000: c466 88bc 5798 d3bb 0d8a 333c 46ec c8bb
00000010: 9059 deba 76b5 dbbc 6fa2 e2bc ea3c 9dbc
00000020: 0996 c4bc 57ad 87bc 0ff0 843c b4ea 5abb
00000030: 22ba fa3b 4c0d 02bd 1982 863c 77fa 853c
00000040: b759 d13c a11d 5dbc cbc9 cdbc 27e9 3cbc
00000050: 1808 393c d0b7 0d3c b2d3 b03c 8c76 babc
00000060: 13b5 99bc bbc6 4cbc 2d25 b0ba 8300 0bbc
00000070: 9715 3f3c fcc4 85bc c0b4 c9bc ab8a 7abc
00000080: 0baa 1fbd 3126 0bbd a53c 52bb 802a 28bb
00000090: cd15 9abb 3473 7d38 5d85 85bc 3598 69bc
000000a0: e6b4 1abb 9e1b 63bc 978a d2bc 9ac4 cabb
000000b0: eff6 a2bc 73f7 31bd 8409 923c 43f3 6f39
000000c0: ce82 a3bb c94b 0f3b 563e f73a b536 1e3c
000000d0: 5463 8cbb 5079 a53b 5cb1 f03c bf86 293c
000000e0: 1733 20bc 2fd2 103b bfeb 73bc 4b78 d0bc
000000f0: b1db 953c f6e5 c8bc 4496 d9bb 2086 19bd
00000100: c03d 6abc 1ba8 5abc af8f a63b e982 89bc
00000110: ff1c 52bc bced 5fbc ab52 833b e311 69bc
00000120: 228e 05bd 021c 40bc 0720 1ebb ca41 c1bc
00000130: 7d8b bbb9 0401 04bd 3e81 843b 5c1f 8cbb
00000140: dcc7 d8bc 982b b4bb 6928 583b 65e7 17bc
00000150: 610b 90bc 1533 b9bc 6930 683b b7aa 043b
00000160: fd01 99bc a81c 76bc c547 a3bc 6c95 6b3b
00000170: 920a 6abb bfea 983c c14d 86bc a70c 2c3b
00000180: fca2 e43b ec6b af3c b616 25bc ff7d e4bb
00000190: 5f24 7cbb 6452 9fbb 8533 a5bc c46f b1bb
000001a0: 2191 073c 425e a0bb d499 d439 9466 6a3a
000001b0: ecec 293a 995f f93c 640a 3a3c 3f2a 55bb
000001c0: 9285 083a 77bf bc3b 549f 403c 00bc 88bc
000001d0: 7e37 81bb 44e0 49bc f3dc 2abc 8a0e 4fba
000001e0: 69ed b43c c6ab 9bbc cdd5 72bc 5498 903c
000001f0: 8b82 b5bc 32d4 963c dfa7 ce3b cccf 7cbc
00000200: 2afd ab3b 69e8 d2bc 5da1 e93b 06f5 3abc
00000210: b3c4 b7bb 92bf 53bc a583 af3b a2c6 9ebc
00000220: 116c 8cbc c418 1c3c 4f4c c23c d779 c23b
00000230: 09af 92bc bb52 8fb9 d527 91bc 310d 2e3c
00000240: d6b8 823a de03 03bb ed1c d23c afcc 38bc
00000250: 6df1 bb3c 3616 b33c f8dc e7ba c026 e0bc
00000260: afd4 0bbc 427a 303c d4cb 0abb c594 2cbc
00000270: 66d1 0cbc 2c55 57bc f7a6 27bc 29b8 9ebc
00000280: c781 35bc 5807 463c a284 683c 74f8 dabc
00000290: 5291 cb3b ffe2 adbb b80a 7fbc 873b e1bc
000002a0: 670a 853a 67f3 0a3b 37de 73b8 3993 b03b
000002b0: 053a 013c 9541 103c eab6 eb3b c933 afbc
000002c0: 3b38 d8bc f063 42bc 9fa2 0bbc 0271 55bc
000002d0: a93a ac3b 054d de3b 6cf7 52bc d5e3 c5bc
000002e0: 4266 3fbc addc 47bb 8baa bb3b 09bd 34bc
000002f0: e8cd 5ebb a2b1 70bc 02b2 af3c b98e 2e3c
00000300: 76ec d6bb 1daf 98bc 1f7d 803c 9a1f c7bc
00000310: 01b3 bcbc a236 69bc 6754 2e3c 6fb6 a3bc
00000320: 813f 483b 3115 293c 8ddb 4f3c e8ea 95bc
00000330: 7a2a 8ebc 17ca 83bc d4ae c2bc 5d9d 803b
00000340: 0a48 8bbc bfe6 3aba d3e5 23bb a541 b3bc
00000350: 6eaf 7e3c acb8 0dbc d35d 973c dd05 58bc
00000360: 7371 8abc a52a 0abd 5f96 fbbc a30a 8b3b
00000370: 31a5 e63c 5beb 263a 8608 59bb ad2c cdbc
00000380: 7030 f1bc 894e acbc 548e f0bc 477f dabc
00000390: 41b4 54ba 1fb8 a0bb 802e e73b 2f6f 11bc
000003a0: 73aa 15bc b60f 93bc 6601 24ba b98f 97bc
000003b0: 07a7 5a3c eccd d43c 6524 ffbc 83ba f4bc
000003c0: 6f6b 96bc f411 07bc 923e 04bc e2ba cebc
000003d0: edc0 e43b 4a96 54bc fd1e 19bc 76ca 87bc
000003e0: 0d34 853c d352 073c 9a81 30bc 47b8 adbc
000003f0: 1664 4c3a b9ec 2cbc 200e 36bc fdbe d03a
-0.016650565 -0.0064573693 0.010958207 -0.0061316816 -0.0016963948 -0.026819926 -0.027665345 -0.019194085
-0.023997324 -0.016562147 0.01622775 -0.0033404054 0.0076515833 -0.031750962 0.016419457 0.016354783
0.025555475 -0.013495834 -0.025120636 -0.011530197 0.011293434 0.008649781 0.02158532 -0.022761606
-0.0187631 -0.012498553 -0.0013438814 -0.008484009 0.011662862 -0.016329281 -0.024622321 -0.01529185
-0.038980525 -0.03397197 -0.0032079604 -0.0025660098 -0.004702306 6.042719e-05 -0.016298944 -0.01425748
-0.002360636 -0.013861565 -0.02570085 -0.0061879875 -0.019893138 -0.043448877 0.017826803 0.00022883438
-0.0049899584 0.002186524 0.0018863182 0.009656598 -0.004284302 0.005049862 0.029381447 0.010347067
-0.009777806 0.0022097935 -0.014887749 -0.025447985 0.018293234 -0.024523716 -0.0066402275 -0.037481427
-0.014296949 -0.0133457435 0.0050830464 -0.016786056 -0.012824296 -0.01366752 0.0040076575 -0.014225456
-0.03260625 -0.011725428 -0.0024127977 -0.023590941 -0.00035771346 -0.03222753 0.004043727 -0.0042761993
-0.026462488 -0.005498361 0.003298307 -0.009271477 -0.01758355 -0.022607366 0.0035429245 0.0020243356
-0.018677706 -0.015021481 -0.019931683 0.0035947217 -0.0035711867 0.018666623 -0.016394498 0.0026252659
0.006977437 0.021413766 -0.0100762155 -0.0069730277 -0.0038473827 -0.0048621166 -0.020166168 -0.005414935
0.0082743475 -0.004894049 0.00040550402 0.0008941677 0.00064821425 0.030441092 0.011355016 -0.0032526401
0.0005207892 0.005760129 0.011756737 -0.016691208 -0.0039433828 -0.0123215355 -0.010428655 -0.000789859
0.022085862 -0.019002806 -0.014821482 0.01765076 -0.022156974 0.01841173 0.006306633 -0.015430402
0.0052486854 -0.025745587 0.0071298317 -0.011410957 -0.005608165 -0.012924092 0.0053562694 -0.019381825
-0.017141374 0.009527389 0.023718027 0.0059349346 -0.017905729 -0.00027336724 -0.017719189 0.010623262
0.0009973298 -0.0019991319 0.025648559 -0.011279269 0.02294227 0.021861177 -0.0017689755 -0.027362227
-0.008534594 0.010771336 -0.002117862 -0.010533516 -0.008594846 -0.013142865 -0.010232679 -0.019374924
-0.011078305 0.012086712 0.014191778 -0.0267298 0.006212392 -0.005306601 -0.01556652 -0.027494205
0.0010150195 0.0021202208 -5.814267e-05 0.005388644 0.007887368 0.0088046985 0.007193436 -0.021386998
-0.026394 -0.011864647 -0.008522659 -0.013027431 0.0052560163 0.006784084 -0.012876373 -0.02415649
-0.011682095 -0.0030496523 0.0057271174 -0.011031398 -0.0033997241 -0.014690788 0.021447185 0.010654145
-0.00655895 -0.018638188 0.015684662 -0.024307061 -0.023034574 -0.014234217 0.01064024 -0.019984452
0.003055543 0.010319994 0.012686622 -0.018300489 -0.017354239 -0.016087575 -0.023765005 0.003925009
-0.017002124 -0.0007129721 -0.0025008812 -0.021881888 0.015544755 -0.008649986 0.018477356 -0.013184992
-0.0168998 -0.033732075 -0.030711351 0.0042432114 0.028154941 0.0006367468 -0.0033116653 -0.025045717
-0.029442042 -0.021033542 -0.029364742 -0.026672019 -0.0008114018 -0.0049047614 0.007055104 -0.008876606
-0.009134877 -0.017951827 -0.0006256312 -0.01850115 0.0133454865 0.025977097 -0.031145284 -0.029874092
-0.018361775 -0.008244026 -0.008071559 -0.025235597 0.0069810064 -0.012975285 -0.009345767 -0.016576033
0.016260171 0.008259493 -0.010773087 -0.021206034 0.00077968964 -0.010554486 -0.011111766 0.001592606

dense.bias f4 [6]
00000000: 9724 7fba 5c3d dd3a 3abc 91bb 6656 d5b9
00000010: 03d7 25ba 749e 893c
-0.00097329303 0.0016879248 -0.004447487 -0.00040690898 -0.000632629 0.01679919

exp_avg f4 [8, 1, 1, 64]
00000000: 1338 dfba 1a7d 3fba b122 35b9 35cd 43ba
00000010: 1070 d4b9 73c7 c639 ced8 97b8 af20 4cb9
00000020: 0422 4a3a aaad 523a debd b139 db56 873a
00000030: 0a3f ac3a 5b36 d439 95e9 a239 180d 213a
00000040: 266d 8ab9 78f5 47ba 3249 28b9 0d1a edb9
00000050: 4477 9dba 10ed 43ba ab16 0fba ae0b aeba
00000060: 2b77 99ba a36d 0bba a718 88ba 9f35 9eba
00000070: e1d3 b4b9 01e0 ceb9 3b14 62ba ed85 7cb8
00000080: 5e8a 1a3a d221 bd39 0b5a 8c3a 2716 093b
00000090: 3475 e03a bec8 bd3a 7f8a 093b 4c73 f13a
000000a0: 07d3 a03a 5090 f63a c919 153b 9cd5 d73a
000000b0: 5add f43a 2d3b 1f3b bf15 df3a c303 973a
000000c0: 2930 c53a 4720 753a 8a15 5036 daba d039
000000d0: ebc3 373a 69e5 3339 2965 213a 7ea1 bf3a
000000e0: ca25 883a ca6d 5c3a 6e90 d23a 2d00 c13a
000000f0: f3fb 733a dc9d d13a 20b7 053b 4ab9 d13a
00000100: 5f4e b33b 2fc2 873b e12f 343b 924a a13b
00000110: 47c7 8e3b c116 c63a 17fa 2a3b 2f06 5f3b
00000120: e84b 9d39 2f9e f6b8 efa3 023b f566 013a
00000130: 35da 06ba b0a9 1b3b de62 223b 1746 8538
00000140: 003b cb3a 9cd7 403b 685a 2f3a a50c 993a
00000150: ba7c 813b 3948 2c3b 2388 b63a f5cb 7e3b
00000160: 4999 6b3b 5574 713a f236 123b 5fd5 5b3b
00000170: d7bc 393a a146 5f3a 7547 623b 31e3 0a3b
00000180: 213b 6f3a bd52 5a3b e4db 333b 8760 a1b9
00000190: 3f2e 443a b5cd e73a d751 61ba 1215 1dba
000001a0: 28f1 0a3b 19ff 593a 6b29 afb9 2f0f 103b
000001b0: be3d f43a 6998 72ba 1d79 6f39 1032 8f3a
000001c0: f6d3 00bb 3251 17bb 96d9 b4b9 84a5 21bb
000001d0: 340c 8fbb 6a8a 19bb f855 3ebb 4df3 b7bb
000001e0: 1af5 88bb 6ceb 42bb 46e2 babb c2b3 bebb
000001f0: 7856 74bb 9ab6 babb 7b2d f0bb 9a36 a3bb
00000200: 3238 dd3b db6a ab3b ec81 933b 6378 7d3b
00000210: 1639 1e3b 9176 c73a 2901 ac3a d116 d739
00000220: ae56 c6b9 8a70 e1b8 da7d acb8 7806 d7b9
00000230: c3da 7639 40f7 7a3a cd0e 403a 4ca4 6d3a
00000240: 4ac0 ce3a f5cb ab3a 349a 5b3a 6e0f 863a
00000250: 971e 083a a987 34ba 425e 8dba d38e b5ba
00000260: d1e8 23bb 8bb0 41bb 2bf6 2ebb 64e9 4cbb
00000270: 4980 65bb 03b6 3dbb fe95 36bb 78d7 58bb
00000280: bec3 4abb 52f5 43bb ed7d 7fbb 9d20 8ebb
00000290: cbcf 87bb c148 9bbb dbf4 abbb 0c5f 98bb
000002a0: 5f43 91bb beef 9bbb 25ca 89bb 41fc 70bb
000002b0: 179e 85bb 390f 7dbb f30a 40bb 1bb8 37bb
000002c0: c149 31bb 28fe e0ba 500d a7ba ca9f b9ba
000002d0: 6caa 23ba c8f5 4339 345d f8b7 ff82 1f39
000002e0: d03c 3b3a 2893 4939 b5f5 06ba 1c91 f8b9
000002f0: 84ec 93ba 97cc 26bb 2d36 4fbb 0792 78bb
00000300: fdb2 37b7 4efb d439 cdb7 293a 9bc7 773a
00000310: fe01 8e3a 8d79 8b3a 59ba 913a a7bc 8a3a
00000320: 6aa8 4e3a 675d 203a 7d11 173a b75d dc39
00000330: c3df a339 76f1 e039 e508 063a b817 163a
00000340: ed6d 663a 8e63 a23a c58f ba3a 6b7d db3a
00000350: 18f8 023b 2c56 0b3b ed5a 103b 8140 1e3b
00000360: a62d 253b 3e50 253b af43 303b 4c19 393b
00000370: 4cfe 313b 341f 2c3b 1cec 2b3b e097 223b
00000380: e34b 1a3b 059f 1b3b 0ea6 143b ea30 073b
00000390: 4506 0a3b beb3 173b b020 243b 2b9d 3a3b
000003a0: 9b09 503b 36f0 493b 8652 333b 4d77 1e3b
000003b0: d09d 013b 0bee be3a 3378 8f3a 012e 3d3a
000003c0: 3945 4f39 42db 55b9 8fc5 eab9 cfa4 42ba
000003d0: 227b 6eba 6ace 49ba 2dc6 18ba b499 d2b9
000003e0: 7e64 c7b8 da33 c738 df2c b3b7 cf7d 5ab9
000003f0: 0f37 b8b9 3a4e 0fba 4e89 1fba a718 dbb9
-0.0017030261 -0.00073047134 -0.00017274429 -0.0007469238 -0.00040519284 0.00037914104 -7.240624e-05 -0.00019467132
0.0007710757 0.0008036742 0.00033901533 0.0010325568 0.0013141346 0.0004047629 0.0003107308 0.0006143614
-0.00026402733 -0.0007627825 -0.00016048996 -0.00045223572 -0.0012013693 -0.0007473985 -0.0005458395 -0.0013278627
-0.0011708488 -0.00053187663 -0.0010383324 -0.0012070424 -0.00034490137 -0.00039458278 -0.00086242304 -6.020621e-05
0.0005895252 0.00036074087 0.0010707987 0.0020917745 0.0017124773 0.0014479381 0.002098709 0.0018421202
0.0012269922 0.0018811319 0.0022750965 0.0016466859 0.001868169 0.0024296746 0.0017020031 0.0011521507
0.001504426 0.0009350818 3.1006953e-06 0.00039812067 0.000701009 0.00017156232 0.00061567366 0.0014620272
0.0010387239 0.0008408694 0.0016064772 0.0014724784 0.0009307258 0.001599248 0.002040334 0.0016000655
0.005471989 0.0041430215 0.0027494358 0.0049222196 0.004357252 0.0015112982 0.0026089007 0.0034030785
0.00030001928 -0.00011759658 0.0019934138 0.0004936301 -0.000514421 0.0023752265 0.0024778168 6.3549895e-05
0.0015505254 0.0029425388 0.0006689192 0.0011676742 0.003951636 0.0026288165 0.001392607 0.0038878892
0.003594952 0.0009210755 0.0022310582 0.0033543927 0.0007085329 0.00085172994 0.0034527455 0.0021192546
0.00091259374 0.0033313476 0.0027444297 -0.00030780231 0.0007483698 0.0017685207 -0.0008595264 -0.00059922144
0.002120087 0.00083159056 -0.0003340946 0.0021981706 0.0018634123 -0.0009254278 0.00022837934 0.0010924954
-0.0019657589 -0.0023089168 -0.0003449439 -0.0024665305 -0.0043654684 -0.0023428448 -0.002904294 -0.0056137205
-0.004179609 -0.0029742373 -0.0057032434 -0.0058197686 -0.0037282985 -0.0056980373 -0.0073296404 -0.0049808742
0.006751084 0.005231244 0.004501572 0.0038676492 0.0024142913 0.0015217831 0.0013122904 0.00041024995
-0.00037830084 -0.00010749798 -8.225041e-05 -0.00041012815 0.00023541883 0.0009573586 0.0007326424 0.00090653147
0.0015773859 0.0013107049 0.0008377165 0.0010227987 0.00051925465 -0.000688667 -0.0010785537 -0.0013851769
-0.0025010596 -0.002955469 -0.002669702 -0.0031267041 -0.003501909 -0.0028947599 -0.0027860398 -0.0033087414
-0.0030939425 -0.002990086 -0.003898497 -0.004337384 -0.004144644 -0.0047388976 -0.005247695 -0.0046500023
-0.00443308 -0.004758804 -0.0042050057 -0.0036771449 -0.0040776837 -0.003861381 -0.0029303401 -0.002803332
-0.0027052017 -0.0017165588 -0.0012745056 -0.0014162001 -0.00062433514 0.0001868821 -2.9607305e-05 0.00015212221
0.00071425457 0.00019223674 -0.00051483075 -0.0004741036 -0.0011285697 -0.0025451535 -0.0031617985 -0.0037928836
-1.0949324e-05 0.00040623028 0.0006474227 0.0009452046 0.0010834334 0.0010641083 0.0011118158 0.0010584787
0.0007883372 0.00061174337 0.0005762799 0.00042031493 0.00031256498 0.00042904512 0.000511302 0.000572558
0.0008790184 0.0012389289 0.001423352 0.0016745751 0.0019984301 0.002126108 0.0022026852 0.0024147334
0.002520421 0.002522483 0.0026895811 0.0028243838 0.002715963 0.0026263716 0.0026233261 0.0024809763
0.0023543767 0.0023745906 0.0022681984 0.002062852 0.0021060866 0.0023147906 0.0025043897 0.0028475027
0.0031744007 0.0030813343 0.002736242 0.0024179996 0.0019777901 0.0014566792 0.0010945856 0.0007216633
0.00019766846 -0.00020394943 -0.0004477915 -0.0007425071 -0.0009097328 -0.00076982996 -0.00058278703 -0.0004016884
-9.5077776e-05 9.4987176e-05 -2.1359358e-05 -0.00020836967 -0.00035136237 -0.0005466674 -0.00060858286 -0.00041789302

exp_avg_sq f4 [8, 1, 1, 64]
00000000: 5c80 2d37 e049 0937 0952 f036 32c9 bc36
00000010: 0b00 9f36 f276 a136 2a24 7536 ff0f 6136
00000020: 01dc 7336 25e0 5636 cb9c 4236 00d4 6236
00000030: a41b 9336 8266 9736 9cc6 bb36 1f65 fc36
00000040: cd28 1737 9044 4537 4a82 6537 903f 8b37
00000050: 6540 b337 0bce c137 13ed d737 1f07 0238
00000060: 5d4e 0a38 3930 0b38 9edb 1738 54f3 1e38
00000070: 8ff6 1538 c809 1738 3436 1c38 da7a 1838
00000080: ee27 1c38 41f1 1e38 6b54 2338 2320 2f38
00000090: ff57 3038 055f 3538 b157 4338 2a24 4738
000000a0: 164f 4738 e8a7 5138 035c 5b38 95db 5738
000000b0: 777b 5e38 0af7 6b38 976d 6938 bb59 6d38
000000c0: ad7f 7838 fb5e 7c38 ec2e 8038 42c0 8338
000000d0: 3dde 8738 f5a1 8738 8a6f 8a38 c1b2 9038
000000e0: 7ec5 8d38 e00e 8d38 3851 9238 6f37 9138
000000f0: 3258 8e38 ff99 9138 de6f 9438 e450 9038
00000100: fc1c 0a39 5982 0339 2a03 0739 cca7 0339
00000110: 6173 fd38 af02 0139 f418 ec38 9f44 ea38
00000120: e9b9 e638 e1ae db38 151f d138 edea c738
00000130: 7613 d438 11a5 bd38 c966 b738 0838 cb38
00000140: 7820 ad38 dd32 a638 6ef1 b138 ff19 a538
00000150: 862b 9338 c3f4 8c38 f1c8 9a38 7f8d 7438
00000160: 6a92 6338 b2f2 8d38 571a 5038 85e4 3a38
00000170: df64 5c38 1e3c 4038 d61c 1338 26e7 0e38
00000180: 86e6 3838 9657 cf37 3792 c137 9b6f 4738
00000190: de6d da37 8212 9537 7eaa 2838 65a0 1138
000001a0: c0df 6937 45f3 c737 6679 2d38 bb17 7437
000001b0: 92f1 8e37 006d 4138 36dc dd37 fdb2 af37
000001c0: dd4c 3438 2f8d 2038 2c4f 9437 694b eb37
000001d0: 35ca 4438 1501 9937 a899 b137 cb8f 7038
000001e0: c679 0a38 a823 c237 b3f1 6a38 5880 5738
000001f0: aada d237 3d32 2c38 5ceb 8138 6884 0638
00000200: 3a4e bc39 fc72 9639 92ed 9539 f91e 9439
00000210: d1c5 6239 8dd2 5139 1947 6039 67ba 4739
00000220: 84b8 4339 a9bc 4e39 fe43 5039 e611 5039
00000230: f930 5239 e1e9 5a39 5264 5739 dba3 5939
00000240: 12e4 6239 138a 5e39 0cba 6139 4466 6339
00000250: 759f 6339 92e8 6c39 d898 6b39 9085 6f39
00000260: 0059 7f39 ac98 8039 81e0 7439 9051 7a39
00000270: 6475 8239 1f12 7139 a379 7039 424c 8139
00000280: 00d9 7439 0810 7139 39b4 8239 30c5 8339
00000290: 1545 7939 0e4e 8239 d84e 8a39 a6e6 7e39
000002a0: 074b 7f39 1cea 8839 6b50 7e39 4f9e 7439
000002b0: c2d1 7939 58ce 6f39 a15e 6339 4cc4 5a39
000002c0: d2b2 5539 5199 5239 3fdb 5039 dfa2 4739
000002d0: aa58 4f39 9e53 6239 74d7 5139 b499 5639
000002e0: 1650 7039 88cd 5f39 4de2 5839 6ec1 6439
000002f0: 56cc 5f39 5c83 5939 e3d7 5739 a624 5939
00000300: e2fa ae38 8697 b038 4afe b238 d86f b338
00000310: 5015 b538 0e4a b738 d4bf b638 f0b1 b638
00000320: f32f b738 fb88 b638 5c51 b538 81d1 b438
00000330: 5169 b438 c1b8 b238 a02d b138 f56e ae38
00000340: c4fa a938 8021 a638 f1eb a138 0f18 9d38
00000350: 0165 9838 111b 9438 b380 9038 69d2 8b38
00000360: 1efb 8738 0463 8438 c898 7d38 ff74 7438
00000370: a007 6c38 e7ba 6238 a43b 5938 ba61 4f38
00000380: e140 4638 b54b 3a38 7597 2f38 c2ff 2538
00000390: e157 1938 9609 0f38 8a3d 0738 576e 0038
000003a0: 0b27 f337 25ce e537 3961 d237 8c3e b337
000003b0: dd57 9937 142f 8537 5e4a 6837 ef67 5537
000003c0: 2994 3e37 391a 2f37 ed7d 2737 67b9 1737
000003d0: 1f40 1037 4ce2 0d37 171d 1037 eb74 1837
000003e0: a75b 1e37 4f7e 2937 1ddc 3137 b2fb 3c37
000003f0: 8d2b 5037 3466 6337 bd7d 8037 8763 8f37
1.03414895e-05 8.183037e-06 7.1621075e-06 5.626259e-06 4.7385743e-06 4.812021e-06 3.6528895e-06 3.3536924e-06
3.633788e-06 3.2018954e-06 2.8999518e-06 3.3800025e-06 4.384159e-06 4.512084e-06 5.5961555e-06 7.5219573e-06
9.009801e-06 1.17580785e-05 1.3679799e-05 1.659969e-05 2.1368449e-05 2.310334e-05 2.5740394e-05 3.1001047e-05
3.2974745e-05 3.3185093e-05 3.620574e-05 3.7896752e-05 3.5753994e-05 3.6010315e-05 3.724378e-05 3.635404e-05
3.7230486e-05 3.789482e-05 3.894085e-05 4.175318e-05 4.2043623e-05 4.3242257e-05 4.6573292e-05 4.7478978e-05
4.751895e-05 4.9985858e-05 5.229936e-05 5.1464496e-05 5.304391e-05 5.625844e-05 5.5653592e-05 5.658877e-05
5.9246715e-05 6.016994e-05 6.1122555e-05 6.2823776e-05 6.478697e-05 6.4674685e-05 6.6011286e-05 6.8997506e-05
6.76019e-05 6.7261746e-05 6.976951e-05 6.924464e-05 6.787515e-05 6.942823e-05 7.078027e-05 6.881522e-05
0.00013171503 0.00012541692 0.00012875782 0.00012555643 0.00012085471 0.00012303398 0.00011258005 0.00011170771
0.00011001883 0.000104753075 9.971686e-05 9.532818e-05 0.000101125726 9.042968e-05 8.745265e-05 9.690231e-05
8.2553306e-05 7.924971e-05 8.4849875e-05 7.872655e-05 7.017613e-05 6.721311e-05 7.3807205e-05 5.830591e-05
5.4257376e-05 6.7686095e-05 4.9615595e-05 4.455868e-05 5.254603e-05 4.5832356e-05 3.5074387e-05 3.4070712e-05
4.408371e-05 2.4717108e-05 2.307548e-05 4.7549238e-05 2.6038786e-05 1.7770803e-05 4.0213105e-05 3.4720073e-05
1.3939978e-05 2.383593e-05 4.1359475e-05 1.45490585e-05 1.7040209e-05 4.61163e-05 2.6447797e-05 2.0944974e-05
4.298693e-05 3.827846e-05 1.7679842e-05 2.8049299e-05 4.691836e-05 1.8239525e-05 2.1171596e-05 5.7354377e-05
3.3015174e-05 2.3143206e-05 5.6015047e-05 5.1379524e-05 2.5135774e-05 4.1054784e-05 6.1950384e-05 3.2071403e-05
0.00035916438 0.000286959 0.00028596498 0.00028251836 0.00021626732 0.0002001023 0.0002138879 0.00019047559
0.00018665387 0.00019715972 0.00019861755 0.00019843093 0.00020045404 0.00020877227 0.0002054137 0.00020755774
0.00021638002 0.00021223006 0.0002152698 0.00021686504 0.0002170781 0.00022593353 0.00022468285 0.00022842572
0.0002435185 0.00024527812 0.00023353288 0.00023872242 0.00024882995 0.00022990302 0.00022933497 0.00024661614
0.00023350492 0.00022989523 0.0002492981 0.00025133183 0.00023772226 0.00024853688 0.00026380154 0.00024309251
0.00024346645 0.00026114366 0.00024253286 0.00023328628 0.00023824631 0.00022869685 0.00021683659 0.00020863226
0.00020379879 0.00020084275 0.00019918101 0.00019038793 0.00019774088 0.0002158419 0.00020012056 0.00020465889
0.00022918018 0.00021343504 0.00020683669 0.00021815833 0.00021343058 0.00020743668 0.00020584422 0.00020708385
8.343697e-05 8.4205574e-05 8.5350664e-05 8.556218e-05 8.634722e-05 8.739914e-05 8.714167e-05 8.71158e-05
8.735051e-05 8.703951e-05 8.645907e-05 8.622092e-05 8.6026856e-05 8.5221145e-05 8.448516e-05 8.317634e-05
8.105257e-05 7.921737e-05 7.721026e-05 7.490825e-05 7.266738e-05 7.0622315e-05 6.890427e-05 6.6672284e-05
6.484076e-05 6.3126936e-05 6.046219e-05 5.8283094e-05 5.6273886e-05 5.4056665e-05 5.1792376e-05 4.944366e-05
4.7267302e-05 4.4416363e-05 4.1864307e-05 3.957726e-05 3.6559886e-05 3.4102784e-05 3.224382e-05 3.062034e-05
2.8986038e-05 2.739492e-05 2.5079224e-05 2.1367588e-05 1.8279936e-05 1.5876758e-05 1.3845593e-05 1.2719988e-05
1.1359379e-05 1.0436918e-05 9.983295e-06 9.043469e-06 8.597998e-06 8.456944e-06 8.589842e-06 9.087128e-06
9.438873e-06 1.01025935e-05 1.0601271e-05 1.1264276e-05 1.2407906e-05 1.355405e-05 1.531734e-05 1.7093274e-05

exp_avg f4 [8]
00000000: 9f07 03b4 2ed3 7ab4 7c04 1b33 bfda b9b3
00000010: 1cb1 0ab3 7392 f0b3 033c 69b4 a745 21b4
-1.2203098e-07 -2.3359891e-07 3.609283e-08 -8.6545235e-08 -3.229171e-08 -1.120251e-07 -2.1721648e-07 -1.5019633e-07

exp_avg_sq f4 [8]
00000000: 5cab a529 0578 af29 8cd7 6429 6141 f829
00000010: cbcc 8529 9d05 c629 3624 af29 f88a c529
7.357198e-14 7.792381e-14 5.0813127e-14 1.1024754e-13 5.9419124e-14 8.79394e-14 7.777843e-14 8.772665e-14

exp_avg f4 [8]
00000000: 6aa0 b930 e411 3ab1 0530 e0b1 f988 d7b1
00000010: c622 5631 c8bf a0b1 457b 78b1 34e9 3d31
1.3506114e-09 -2.7076732e-09 -6.524717e-09 -6.2728955e-09 3.1160865e-09 -4.678416e-09 -3.615882e-09 2.763568e-09

exp_avg_sq f4 [8]
00000000: fbac c326 03db 3226 717f 6227 91c7 1427
00000010: ec21 ca26 88f7 d426 ca6c 4c26 62f9 9526
1.357773e-15 6.205297e-16 3.1432887e-15 2.0647311e-15 1.402576e-15 1.4777549e-15 7.0924154e-16 1.0406547e-15
