checkpoints/eeg_checkpoint.pth.tar (torch, 191530 bytes, 39 tensors)

conv1.weight f4 [8, 1, 1, 64]
0	0xbc155301	-0.009114028
1	0x3d1b12b6	0.03785964
2	0xbd160543	-0.03662611
3	0x3db54a2a	0.08852036
4	0x3df2035c	0.11817047
5	0xbd6eaf6f	-0.058272775
6	0x3df81e42	0.12115146
7	0x3d0622bf	0.03274798
8	0x3dc48fc6	0.09597735
9	0x3bc41425	0.0059838467
10	0x3d84456c	0.06458554
11	0xbcb67937	-0.022274597
12	0x3dc18909	0.094499655
13	0x3cad0f69	0.021125512
14	0xbd789322	-0.06068719
15	0x3d03e7a3	0.032203328
16	0xbd8f9457	-0.070107155
17	0xbc855d0e	-0.016279723
18	0xbd8c292c	-0.068437904
19	0x3d36b6d7	0.044607963
20	0xbdf489d0	-0.11940348
21	0xbdcbd00a	-0.0995179
22	0xbd9dbb19	-0.07701702
23	0xbde61dc7	-0.11236148
24	0xbce0f0f5	-0.027458647
25	0xbe129a07	-0.1431657
26	0x3d9d765e	0.076885924
27	0xbe06f6ea	-0.13180128
28	0x3d90f5b0	0.07078111
29	0xbc27b635	-0.010236313
30	0xbd3d0832	-0.046150394
31	0x3d8317b0	0.064010024
32	0x3caa4dc8	0.020789042
33	0x3de7ece5	0.11324481
34	0x3cf11af1	0.029431792
35	0xbb8a9d82	-0.004230202
36	0x3d5cae88	0.053877383
37	0x3b824894	0.003975937
38	0x3db8d668	0.0902527
39	0x3dffb3d1	0.12485469
40	0x3ddb4ab1	0.10707606
41	0xbceff67c	-0.029292338
42	0x3dc9ac7e	0.098473534
43	0x3d41788f	0.047234114
44	0x3daa7cc5	0.08324579
45	0xbd20cd6e	-0.039258413
46	0xbdc69d06	-0.096979186
47	0xbcaee405	-0.021348963
48	0xbd9bbebf	-0.07604741
49	0x3dbe0aaf	0.092793815
50	0x3cc70216	0.024292987
51	0x3cce9fb5	0.025222639
52	0x3c941f84	0.018081434
53	0xbcb511ea	-0.022103269
54	0x3d993e51	0.07482589
55	0xbdb56c4b	-0.08858546
56	0x3aa30682	0.0012437853
57	0xbdbaf81a	-0.09129353
58	0x3d041584	0.03224708
59	0xbd4ecd05	-0.05048849
60	0x3d54d89a	0.05196438
61	0xbcd44ee4	-0.025916524
62	0x3dd45a9b	0.10368844
63	0xbd8e11cd	-0.06936989
64	0xbd99f8f5	-0.07518188
65	0xbd9e14bb	-0.07718798
66	0x3de6bb4d	0.112661935
67	0x3d38ac81	0.045086388
68	0x3e00dc5c	0.1258406
69	0xbdbfb841	-0.093613155
70	0xbddfb75f	-0.10923647
71	0xbda7cd13	-0.08193412
72	0xbd946174	-0.0724515
73	0x3d654da4	0.055982247
74	0x3d370b37	0.04468843
75	0x3dccce90	0.10000336
76	0xbd8a8ed1	-0.06765521
77	0xbdb81d0f	-0.089899175
78	0x3d7d05e5	0.0617732
79	0xbd6109f0	-0.054941118
80	0x3d95a9a9	0.07307751
81	0xbce56ad9	-0.02800505
82	0x3d9256e6	0.07145481
83	0xbdc6d8f7	-0.097093515
84	0xbd867e42	-0.065670505
85	0x3cd37e17	0.02581696
86	0x3be0c5cb	0.0068595163
87	0xbd72638c	-0.059176967
88	0x3d29cf23	0.041457307
89	0x3d6cc65b	0.057806354
90	0xbdd444b3	-0.10364666
91	0xbd9d2435	-0.076729216
92	0x3dd327fb	0.1031036
93	0xbd392b51	-0.045207325
94	0xbd278dad	-0.040906597
95	0xbdeed96b	-0.11662563
96	0xbda64397	-0.081183605
97	0x3be38ebc	0.0069445055
98	0xbd275d9d	-0.04086076
99	0xbde8446d	-0.11341176
100	0xbcb225ca	-0.021746535
101	0xbdee5a48	-0.116383135
102	0xbe168b26	-0.14701518
103	0xbdd997b0	-0.10624635
104	0xbe10b3e7	-0.14131127
105	0xbdf3f951	-0.11912788
106	0x3d9bac1a	0.07601185
107	0xbcfb4f26	-0.03067739
108	0xbc764c62	-0.0150328595
109	0xbe229a6a	-0.15879217
110	0xbdd79686	-0.10526757
111	0xbd74629f	-0.059664365
112	0x3ab32b72	0.0013669564
113	0xbdfd729f	-0.12375378
114	0xbd89e72c	-0.06733546
115	0xbdae225e	-0.08502649
116	0x3b2d2fec	0.0026426269
117	0xbcdbab71	-0.026815148
118	0x3cbc5250	0.022988468
119	0xbd3e5b50	-0.0464738
120	0xbd43ce10	-0.04780394
121	0xbd21ea15	-0.03952988
122	0xbc2b9da3	-0.010474595
123	0xbd96452d	-0.07337413
124	0x3df27f6b	0.11840709
125	0xbc161359	-0.009159886
126	0x3e02aca1	0.12761165
127	0x3d84b22f	0.06479298
128	0xbe0e3816	-0.13888583
129	0x3d391671	0.045187417
130	0xbd910420	-0.07080865
131	0xbd93757a	-0.07200141
132	0xbdddfab8	-0.108388364
133	0xbe0e4a38	-0.138955
134	0x3c007a03	0.00784159
135	0xbd674de2	-0.05647076
136	0x3c8612d8	0.016366407
137	0xbe084d76	-0.13310799
138	0x3d6ed314	0.05830677
139	0xbddf2ce0	-0.10897231
140	0xbc9bfcf9	-0.019041525
141	0x3d10c381	0.035342697
142	0x3dad1626	0.0845149
143	0x3df03f53	0.11730828
144	0x3e0e47b6	0.13894543
145	0xbd8da0e9	-0.06915457
146	0x3d3d50ff	0.046219822
147	0xbd143b06	-0.0361891
148	0x3bc66927	0.0060550156
149	0xbd927097	-0.07150381
150	0x3e0d5ef4	0.13805753
151	0xbd6eef4d	-0.058333684
152	0x3dde03f9	0.108406015
153	0x3d9a9504	0.07547954
154	0x3d96ae2b	0.07357439
155	0xbd3194ef	-0.043354925
156	0x3dde2ab3	0.10847988
157	0x3c2baa89	0.0104776705
158	0xbbb68c75	-0.005570943
159	0xbe086f5e	-0.13323733
160	0x3cd31df3	0.025771117
161	0xbd25a67a	-0.040441968
162	0xbd8a1893	-0.067429684
163	0x3dafb422	0.085792795
164	0x3c14a60b	0.009072791
165	0xbd8bdc2a	-0.06829102
166	0xbd71741f	-0.058948632
167	0xbb69b3fb	-0.0035660255
168	0x3d8c429b	0.068486415
169	0xbcac6575	-0.021044472
170	0xbd5057f9	-0.050865147
171	0xbccd7b93	-0.025083339
172	0xbd9bfb19	-0.076162525
173	0x3d3626d2	0.044470616
174	0x3dd0ffd6	0.10205047
175	0xbdbc374f	-0.09190237
176	0x3d25701c	0.04039012
177	0x3d839d8b	0.06426533
178	0x3d03437a	0.032046773
179	0xbcdf7cbb	-0.027281156
180	0x3d9334a0	0.07187772
181	0x3d80a616	0.062816784
182	0x3d55e955	0.052224476
183	0xbc91411a	-0.017731238
184	0xbd04a4d7	-0.032383766
185	0x3bfab61b	0.007651103
186	0xbcfcdde0	-0.030867517
187	0xbd299feb	-0.041412275
188	0x3d83323d	0.064060666
189	0x3dbc6618	0.0919916
190	0xbc6d3307	-0.014477498
191	0xbced4c03	-0.02896691
192	0x3c067490	0.008206502
193	0xbc7d3f10	-0.01545693
194	0x3d08e241	0.033418898
195	0x3cf1f260	0.029534519
196	0xbe07df68	-0.13268816
197	0xbd40696a	-0.04697553
198	0x3de208ab	0.110368095
199	0x3d81b32b	0.06333002
200	0x3a9369af	0.0011246706
201	0xbd8af618	-0.0678522
202	0xbd63266e	-0.05545657
203	0xbdd152ac	-0.102208465
204	0xbcdf7b79	-0.027280556
205	0x3d677562	0.05650843
206	0x3db6f2a3	0.08932998
207	0x3d881d6c	0.06646237
208	0xbdfe4da9	-0.12417156
209	0xbdb3f748	-0.087873995
210	0xbd0288b0	-0.031868637
211	0x3ddacaab	0.10683187
212	0x3c263d4c	0.01014645
213	0xbd3023f3	-0.043003034
214	0x3d74786f	0.059685167
215	0xbd45111f	-0.04811203
216	0xbdbe006c	-0.09277424
217	0x3db618df	0.088914625
218	0xbd95445c	-0.07288429
219	0xbd383986	-0.044976734
220	0xbe13ea83	-0.14444928
221	0x3da5c10e	0.08093463
222	0x3ddd991d	0.1082022
223	0x3d108b85	0.035289306
224	0xbdd7a085	-0.105286635
225	0xbe1b9084	-0.15191847
226	0xbe0a6057	-0.13513313
227	0x3d9307d7	0.0717923
228	0x3ccad126	0.024757933
229	0x3d8900c7	0.066896014
230	0x3cefe4dc	0.029283933
231	0x3baa3989	0.005194847
232	0xbbf4811e	-0.007461681
233	0xbddb32d8	-0.10703057
234	0xbde382b4	-0.11108914
235	0xbddc3b02	-0.10753442
236	0x3d979776	0.07401936
237	0xbd016591	-0.031591002
238	0xbc60b75e	-0.013715593
239	0xbd565298	-0.05232486
240	0xbbd7343d	-0.0065675066
241	0xbdb4dce9	-0.08831198
242	0xbd950883	-0.07277014
243	0x3d4269fd	0.04746436
244	0xbca04963	-0.019566244
245	0x3dc24477	0.09485715
246	0xbd2ad9b3	-0.04171152
247	0xbdbb2f58	-0.091398895
248	0xbca1c9de	-0.019749578
249	0xbd4bada0	-0.04972613
250	0xbd16ef81	-0.036849502
251	0xbdf78ff2	-0.12088002
252	0x3d94444c	0.07239589
253	0xbde9372a	-0.11387475
254	0x3cf8effc	0.030387871
255	0x3c766bc1	0.015040339

batchnorm1.weight f4 [8]
0	0x3f856776	1.0422199
1	0x3f858e01	1.0433961
2	0x3f817bad	1.0115868
3	0x3f844853	1.0334572
4	0x3f830384	1.0235448
5	0x3f87c663	1.0607418
6	0x3f815209	1.010316
7	0x3f8a1604	1.0787969

batchnorm1.bias f4 [8]
0	0x3a728c91	0.00092525134
1	0x3c94997d	0.018139595
2	0x3a141fec	0.00056505087
3	0xbc6e8c59	-0.014559829
4	0xba8ec7de	-0.0010893305
5	0x39aba9b4	0.000327421
6	0xbb1bab1f	-0.002375312
7	0x3b5cc3bf	0.003368601

batchnorm1.running_mean f4 [8]
0	0x3892e922	7.005247e-05
1	0xb8465ac0	-4.7291396e-05
2	0xb863d4f7	-5.4319356e-05
3	0x37ca8f68	2.4147055e-05
4	0xb8e6e026	-0.000110090055
5	0xb8096835	-3.2760396e-05
6	0x3799169c	1.824955e-05
7	0x38645252	5.4436103e-05

batchnorm1.running_var f4 [8]
0	0x3f7e6504	0.9937289
1	0x3f8e1979	1.1101524
2	0x3f247bca	0.6425139
3	0x3e6cc4c5	0.23121937
4	0x3fe46c16	1.7845485
5	0x3ea913bb	0.33022866
6	0x3ea1f970	0.31635618
7	0x3f0b2056	0.54346216

depthwiseConv.weight f4 [16, 1, 37, 1]
0	0x3e1b0e17	0.15142094
1	0xbe1a0d70	-0.15044188
2	0x3e1b5844	0.1517039
3	0xbc5e073a	-0.013551528
4	0xbc329a08	-0.010900982
5	0x3e0113b5	0.12605174
6	0xbbeb9a04	-0.007189991
7	0x3e013357	0.12617241
8	0x3dea824c	0.114506334
9	0xbe2936b1	-0.1652477
10	0x3d315515	0.04329403
11	0x3d6a8660	0.057257056
12	0x3d51604e	0.051117234
13	0x3d3a2c31	0.0454523
14	0x3d46ac37	0.04850408
15	0xbd157fa4	-0.03649868
16	0x3ba4ef2c	0.0050333943
17	0x3e416c49	0.18888964
18	0x3e14c77d	0.14529224
19	0xbd8ba072	-0.06817712
20	0xbe15e05a	-0.14636365
21	0xbc3b0863	-0.011415574
22	0xbd5d1019	-0.05397043
23	0x3e021bbd	0.12705894
24	0xbdcb9e67	-0.09942322
25	0xbb5b941f	-0.0033505035
26	0xbcbf4d57	-0.023352308
27	0x3cb89b1f	0.022534905
28	0x3e021379	0.1270274
29	0x3d061d58	0.032742828
30	0x3d9cc361	0.07654453
31	0x3e0a7e03	0.13524632
32	0x3dfab760	0.12242007
33	0xbd7378a1	-0.059441213
34	0xbd1b386a	-0.037895598
35	0x3d142915	0.03617199
36	0xbd1e89fc	-0.03870581
37	0x3debc76b	0.11512645
38	0x3d4bc825	0.04975142
39	0xbd7dc583	-0.06195594
40	0x3d6d96ec	0.05800526
41	0x3dbe803b	0.09301802
42	0x3e0aaab3	0.13541679
43	0x3e41484f	0.1887524
44	0x3dab0718	0.083509624
45	0x3e2e40e2	0.17016938
46	0xbc5f85e6	-0.013642764
47	0xbdff32cf	-0.12460863
48	0xbdf387d2	-0.1189114
49	0xbdbd8a76	-0.09254925
50	0xbe0b91ce	-0.13629839
51	0xbd86f2c1	-0.065892704
52	0xbe1e3cab	-0.1545283
53	0xbe043f3f	-0.12914751
54	0xbd23bad0	-0.03997308
55	0xbe045554	-0.12923175
56	0xbc852fb7	-0.016258104
57	0x3d2fbd2f	0.04290503
58	0x3e4705fb	0.19435875
59	0x3ced4e3f	0.028967975
60	0x3cc53dc5	0.024077306
61	0x3dc73f17	0.0972883
62	0xbc7b06f2	-0.01532148
63	0xbc536af6	-0.012903919
64	0x3e114489	0.141863
65	0xbde57338	-0.11203617
66	0x3d303f3f	0.043029066
67	0x3e08cad6	0.13358626
68	0x3d446db7	0.047956195
69	0x3da93b71	0.08263291
70	0xbd91a4ed	-0.07111535
71	0x3c1dd99f	0.009634404
72	0xbc3bd2de	-0.011463849
73	0x3d860bb1	0.06545199
74	0x3dae6e8c	0.08517179
75	0x3e218c25	0.15776117
76	0xbdf1ac49	-0.11800439
77	0xbbe9dcc0	-0.007136911
78	0xbd808bbd	-0.06276653
79	0xbe064e3b	-0.1311578
80	0xbd0f0797	-0.034919348
81	0xbe2df046	-0.16986188
82	0x3e382423	0.17982535
83	0x3d4008ee	0.046883516
84	0xbdc7faf3	-0.09764662
85	0x3e07b324	0.1325193
86	0xbdf83427	-0.12119322
87	0xbd26bfa8	-0.04071012
88	0xbcec4f81	-0.028846504
89	0xbde27156	-0.11056773
90	0xbd8c7d2e	-0.06859814
91	0xbcd77e31	-0.02630529
92	0x3de9985e	0.11406015
93	0x3e36db67	0.17857133
94	0x3d77f351	0.06053478
95	0xbdd030fb	-0.10165592
96	0xbdf16e76	-0.11788647
97	0x3e2932a2	0.16523221
98	0x3d01e95b	0.031716686
99	0xbbbee1f8	-0.0058252774
100	0x3d9e2acc	0.077230066
101	0xbdf23277	-0.11826032
102	0xbd306efb	-0.04307459
103	0x3e11f82b	0.14254825
104	0xbb0c8aca	-0.002144503
105	0x3cf35e85	0.029708156
106	0xbe0c6f9e	-0.13714454
107	0xbdbdb8e7	-0.09263783
108	0x3ca3a093	0.019974029
109	0xbd627f20	-0.055297017
110	0xbd251047	-0.040298726
111	0x3dcc07e4	0.099624425
112	0xbdfb4ecf	-0.12270891
113	0x3e092e0c	0.13396472
114	0xbd51794e	-0.051141076
115	0xbd0308cd	-0.031990815
116	0x3ded9138	0.11599964
117	0x3e3939be	0.18088433
118	0x3c90e995	0.017689506
119	0xbd0e0236	-0.034670077
120	0xbe11ed64	-0.14250714
121	0xbd67e4fe	-0.05661487
122	0xbe22d604	-0.15901953
123	0xbd1c22d3	-0.03811915
124	0x3c877cb0	0.016538948
125	0xbe1216fe	-0.14266583
126	0x3ddb70d6	0.10714881
127	0x3d5f0a96	0.054453455
128	0xbe1d0584	-0.15334135
129	0xbda1eaa2	-0.07906081
130	0x3da1743c	0.07883498
131	0xbd1df295	-0.038561422
132	0x3c656d55	0.014003118
133	0xbdbc64a5	-0.09198884
134	0x3dbfbfe6	0.093627736
135	0xbda30db8	-0.07961601
136	0x3dfc1721	0.12309099
137	0x3d96e610	0.073681
138	0x3d54ccfb	0.051953297
139	0x3e181c93	0.1485465
140	0xbc8e48c2	-0.017368678
141	0xbe2ce11a	-0.16882744
142	0xbbac4183	-0.005256833
143	0x3e1dcb1e	0.15409514
144	0xbdca0adc	-0.098653525
145	0x3c094cac	0.008380096
146	0xbdcf7f58	-0.10131711
147	0x3dc08452	0.09400238
148	0x3d8e748e	0.06955825
149	0x3acfd56b	0.001585645
150	0xbc59d7a4	-0.013296042
151	0xbd9653b0	-0.07340181
152	0x3ddbefac	0.10739073
153	0xbdad4a38	-0.08461422
154	0xbd1d8146	-0.038453363
155	0x3cd1ab51	0.025594385
156	0x3e17a873	0.14810352
157	0xbc6a4ee1	-0.014301033
158	0xbe48709e	-0.1957421
159	0x3deb4492	0.11487688
160	0xbccd2829	-0.025043564
161	0xbd7f1d00	-0.062283516
162	0xbe4c64b1	-0.19960286
163	0xbcc2050b	-0.023684045
164	0x3e050047	0.12988387
165	0x3d15088d	0.036385108
166	0xbdb18268	-0.08667451
167	0x3d1b9e3f	0.037992712
168	0xbcf4c770	-0.029880255
169	0x3e3474be	0.17622659
170	0xbd2d6d67	-0.042340662
171	0x3cebc5a1	0.02878076
172	0xbda6aded	-0.081386425
173	0x3d2ff884	0.042961612
174	0x3dc4c786	0.096083686
175	0x3de51ba0	0.1118691
176	0x3d7b6175	0.06137224
177	0x3e61e318	0.22059286
178	0x3ddc3c98	0.10753745
179	0x3e08d06e	0.1336076
180	0x3e043ca3	0.12913756
181	0x3e391ba5	0.18076952
182	0x3c1a7a7f	0.009428619
183	0x3dcaf169	0.099093266
184	0x3e12aad6	0.14322981
185	0xbde6d16e	-0.11270414
186	0xbda52e79	-0.080655046
187	0xbde64ae9	-0.11244757
188	0x3d2fa9a1	0.04288638
189	0xbe123c10	-0.14280725
190	0x3cf1f29d	0.029534632
191	0x3d191134	0.03736992
192	0xbe24341c	-0.16035503
193	0x3d879bd3	0.06621518
194	0x3ae3e39f	0.0017386562
195	0x3dc72ba6	0.09725122
196	0x3dad0b01	0.084493645
197	0xbe2c60be	-0.16833779
198	0x3e17a75c	0.14809936
199	0x3e019fee	0.12658665
200	0x3d67c55b	0.056584697
201	0xbe1fd98b	-0.1561033
202	0xbdbb6e1d	-0.09151862
203	0xbdb5c4bd	-0.088754155
204	0x3cacae52	0.021079216
205	0x3d7bf66c	0.061514303
206	0x3dae448f	0.0850917
207	0x3dad3057	0.08456486
208	0xbd8639d7	-0.06554001
209	0x3d4f6b08	0.050639182
210	0x3d8016f2	0.062543765
211	0xbe3c1984	-0.18369108
212	0xbe452a6f	-0.19254468
213	0xbe02ba4e	-0.12766382
214	0x3da3a839	0.0799107
215	0xbe1387f9	-0.14407338
216	0xbdff9563	-0.12479665
217	0x3dcf5479	0.10123534
218	0x3db2d278	0.0873155
219	0x3ddefd6f	0.10888182
220	0xbdef2342	-0.11676647
221	0xbdcc3430	-0.099708915
222	0x3d7dc080	0.06195116
223	0x3e042037	0.12902914
224	0x3ddf4bfa	0.10903163
225	0x3cda4d44	0.026648171
226	0x3d5b3c40	0.053524256
227	0x3e037cfd	0.12840648
228	0xbe15ccad	-0.14628859
229	0xbe0b1bfa	-0.13584891
230	0x3e0ccaf1	0.13749291
231	0xbd843f84	-0.06457427
232	0xbd680465	-0.056644816
233	0x3e06e98f	0.13175033
234	0x3d8868b8	0.066605985
235	0x3d95b38e	0.07309638
236	0xbd78dd85	-0.060758132
237	0xbb3559da	-0.0027671964
238	0x3e10a4a7	0.1412531
239	0xbdd5f9d5	-0.10448042
240	0xbd170393	-0.036868643
241	0x3db4d08d	0.088288404
242	0xbe096e8b	-0.13421075
243	0x3e259a43	0.16172127
244	0xbda5fa3b	-0.08104368
245	0xbcfc424e	-0.030793335
246	0xbdb7b94d	-0.0897089
247	0xbdd3e63a	-0.103466466
248	0xbe050f6d	-0.12994166
249	0x3e04f8a8	0.1298548
250	0x3cc2af33	0.023765182
251	0xbe254fe2	-0.16143754
252	0xbdae226e	-0.08502661
253	0x3e3ed73c	0.18636793
254	0x3d000491	0.031254355
255	0x3daffdbd	0.085933186

batchnorm2.weight f4 [16]
0	0x3f8038e5	1.0017363
1	0x3f88f8a5	1.070088
2	0x3f80a370	1.0049877
3	0x3f869ec9	1.0517207
4	0x3f87583e	1.0573804
5	0x3f7b6281	0.9819718
6	0x3f83691e	1.0266454
7	0x3f82f1ba	1.0230019
8	0x3f88d055	1.0688578
9	0x3f7946b3	0.97373503
10	0x3f886400	1.0655518
11	0x3f7f9f35	0.99852306
12	0x3f82a83e	1.0207593
13	0x3f8179e0	1.0115318
14	0x3f8ac8ac	1.084249
15	0x3f83cfa3	1.0297741

batchnorm2.bias f4 [16]
0	0xbdcd4cc0	-0.100244045
1	0xbe1f65ab	-0.15566127
2	0xbd5d96c5	-0.054098863
3	0xbdb91285	-0.090367354
4	0xbe058d00	-0.13042068
5	0xbdd061b3	-0.10174885
6	0xbd489ece	-0.048979573
7	0xbd8726f4	-0.065992266
8	0xbd82f234	-0.06393853
9	0xbcbb72d8	-0.02288191
10	0xbded3646	-0.115826175
11	0xbd7ea5f2	-0.062169977
12	0xbddf6579	-0.10908026
13	0xbdc2db97	-0.0951454
14	0xbdffd6d6	-0.124921486
15	0xbdb95a7b	-0.09050461

batchnorm2.running_mean f4 [16]
0	0x3a81d916	0.0009906616
1	0x39df69cd	0.00042612702
2	0xbbb76185	-0.005596342
3	0xba31b6d8	-0.000677926
4	0x3a6aab14	0.0008951884
5	0xb9c530b7	-0.00037611063
6	0xbb7d7c2c	-0.0038678749
7	0xbb0e8c5a	-0.0021751137
8	0x39d70a6c	0.0004101576
9	0xba9d4feb	-0.0012001967
10	0x37efff60	2.8609938e-05
11	0xb9c23a95	-0.0003704621
12	0x3ab30e13	0.0013660811
13	0x3b2dfca6	0.0026548295
14	0x3a11a58e	0.00055559806
15	0x3b39969d	0.0028318532

batchnorm2.running_var f4 [16]
0	0x3efe9888	0.49725747
1	0x3f2f74d5	0.68537647
2	0x3e7e6f2e	0.24847099
3	0x3ed60df9	0.41807535
4	0x3fd3b8db	1.6540788
5	0x3eb2c95d	0.34919253
6	0x3ebb6bbc	0.36605632
7	0x3e9bc409	0.30423
8	0x3f37e5af	0.71834844
9	0x3e915f21	0.2839289
10	0x3e1199ab	0.14218776
11	0x3ec0a8ef	0.37628886
12	0x3f33f179	0.70290333
13	0x3f37ad68	0.7174897
14	0x3e822943	0.25422105
15	0x3f60ff84	0.87889886

separableConv.weight f4 [16, 16, 1, 16]
0	0xbba666d1	-0.0050781746
1	0x3c9b9a78	0.018994555
2	0xbcde9d57	-0.027174635
3	0xbd5879d8	-0.052850574
4	0xbd178976	-0.036996327
5	0x3d33dbbf	0.043910738
6	0xbc7564e2	-0.014977666
7	0x3cb30454	0.02185265
8	0xbca6eea2	-0.02037746
9	0x3cc0b13c	0.023522012
10	0x3c417326	0.011807239
11	0x3a69acf5	0.0008914017
12	0xbcb963f0	-0.022630662
13	0xbd47b360	-0.04875505
14	0xbc95f4c3	-0.018305188
15	0xbd721e92	-0.059111185
16	0x3d570878	0.05249831
17	0xbd30fc2f	-0.04320925
18	0x3cc125b9	0.023577558
19	0x3d69a155	0.057038624
20	0x3cffea20	0.03123957
21	0x3cbcf47b	0.023065796
22	0xbd893cb2	-0.0670103
23	0x3d210723	0.039313447
24	0xb93b8ab1	-0.00017885376
25	0xbcc34717	-0.02383761
26	0x3db1612e	0.08661114
27	0x3c54563a	0.012960011
28	0x3d003487	0.031300094
29	0x3d9e3637	0.077251844
30	0xbbeb15fb	-0.007174251
31	0xbc5459d5	-0.012960871
32	0xbcb7ef44	-0.022452958
33	0xbd2ea8e6	-0.042641543
34	0xbcaf4d3a	-0.02139913
35	0xbda3ff36	-0.08007662
36	0xbd229a5d	-0.039697994
37	0xbd5c54fd	-0.05379199
38	0xbd0e936a	-0.034808554
39	0xbd518ec8	-0.051161557
40	0x3d117ac7	0.03551748
41	0x3c8642ae	0.016389217
42	0xbd4805ac	-0.048833534
43	0x3d3e1680	0.046408176
44	0x3cdd07eb	0.026981315
45	0x3c9a15c1	0.018809201
46	0xbd100d3f	-0.035168882
47	0x3b23eaad	0.0025011704
48	0x3d75051d	0.05981933
49	0x3d43adb9	0.047773097
50	0xbcd131a8	-0.025536373
51	0x3d8448e8	0.06459218
52	0x3ce74934	0.028233148
53	0x3d685f91	0.056731764
54	0x3d98d14f	0.074617974
55	0x3db2443e	0.087044224
56	0xbc68dbcf	-0.014212563
57	0x3d8e59a9	0.06950695
58	0xbd194865	-0.037422556
59	0xbaec4957	-0.0018027228
60	0xbd818e6a	-0.063259915
61	0xbd2b2bd6	-0.041789852
62	0xbd08db2a	-0.033412136
63	0xbd3af4c9	-0.0456436
64	0xbc4e1fd0	-0.012580827
65	0x3bf08457	0.007339995
66	0x3d7adf9f	0.061248418
67	0x3d440e08	0.047864944
68	0x3cfc1dd3	0.03077594
69	0x3c8ba419	0.017046021
70	0x3cc137f4	0.02358625
71	0xbce904de	-0.028444704
72	0xbc07cb44	-0.008288208
73	0x3b03fb54	0.0020138817
74	0xbd317dc3	-0.043332826
75	0xbcc1dc42	-0.023664597
76	0x3d0f0a51	0.034921948
77	0x3c9c7e9d	0.019103343
78	0x3d4753cd	0.048663903
79	0x3d06a223	0.03286947
80	0x3ccb3414	0.024805106
81	0x3d347a70	0.044062078
82	0xbce386c0	-0.027774215
83	0x3d01c120	0.03167832
84	0x3d0b905a	0.03407321
85	0xbd296753	-0.041358303
86	0xbd00e641	-0.031469587
87	0xbcf66882	-0.03007913
88	0xbce45c3e	-0.027876016
89	0xbd00585a	-0.03133426
90	0xbc42fb09	-0.011900672
91	0xbd1defb3	-0.038558673
92	0xbd799239	-0.060930464
93	0xbd3d4d4e	-0.0462163
94	0xbd073fff	-0.033020016
95	0x3d2f4de4	0.04279889
96	0xbcbd9a64	-0.023144908
97	0xbd1aeef1	-0.03782553
98	0x3c8eeda4	0.0174473
99	0xbb879141	-0.0041371887
100	0x3d01dcd2	0.03170473
101	0x3cc9ebc5	0.024648556
102	0x3d0044c4	0.03131558
103	0xbd8cb41e	-0.06870292
104	0x3c2a1d11	0.0103829065
105	0x3d15f122	0.036606915
106	0xbc971f55	-0.018447557
107	0x3d83e41c	0.06439993
108	0x3d680433	0.05664463
109	0x3c25e2a7	0.010124839
110	0x3cff53c1	0.031167867
111	0xbc9c0f9c	-0.019050412
112	0xbd870453	-0.06592622
113	0xbb0916d6	-0.0020918152
114	0xbb2a1de4	-0.0025957758
115	0xbd3f418d	-0.046693373
116	0x3c9870cc	0.018608473
117	0xbd74360f	-0.059621867
118	0x3d21aeb1	0.03947324
119	0x3d264545	0.040593404
120	0x3bdfd461	0.0068307375
121	0xbd2e3162	-0.042527564
122	0x3d106b0d	0.03525834
123	0x3cc0e501	0.023546698
124	0x3cfb5681	0.030680897
125	0x3d10c2fa	0.035342194
126	0x3d64b60d	0.05583768
127	0xbc99d6b5	-0.018779138
128	0x3ba563e8	0.00504731
129	0x3ce43ee7	0.027862025
130	0x3cb07610	0.021540672
131	0x3d79c42d	0.060978103
132	0xbc9cbeb7	-0.019133909
133	0xb87c784c	-6.0193517e-05
134	0x3b9888ba	0.004654971
135	0xbce9ffc4	-0.028564341
136	0x3d009304	0.031390205
137	0xba991910	-0.0011680443
138	0xbd6a4845	-0.057197828
139	0xbc5587cb	-0.013032864
140	0xbce6f15c	-0.028191261
141	0xbba904e3	-0.0051580532
142	0xbc70ab00	-0.014689207
143	0xbd901c57	-0.070366554
144	0xbce89128	-0.028389528
145	0xbc7ec5cd	-0.015550089
146	0xbc863ae3	-0.016385501
147	0x3d71b495	0.059010107
148	0xbc92b162	-0.017906848
149	0x3cd513e9	0.02601047
150	0xbc5e41d0	-0.013565496
151	0xbda1f61a	-0.07908268
152	0xbcead798	-0.028667256
153	0x3b23fb11	0.0025021473
154	0xbd98f35b	-0.07468291
155	0xbd8565c3	-0.0651355
156	0x3d02da90	0.03194672
157	0x3d2232f0	0.03959936
158	0xbc9e07c5	-0.019290814
159	0x3d666ad1	0.05625421
160	0x3cba482b	0.02273949
161	0xbca03abf	-0.019559262
162	0x3d0ad5ea	0.03389541
163	0x3d1a92cf	0.037737664
164	0xbad9ea57	-0.0016625625
165	0x3d19d2c0	0.037554502
166	0xbc883304	-0.016625889
167	0x3d7d0080	0.061768055
168	0x3d8b69f2	0.06807317
169	0x3d72e1ed	0.05929749
170	0x3d28e8da	0.04123769
171	0x3d479ec1	0.048735384
172	0xbcfd7325	-0.030938694
173	0xbbb2a255	-0.0054514804
174	0xbc80f6e7	-0.015742732
175	0xbd32e8d7	-0.043679085
176	0xbd675417	-0.05647668
177	0x3d25b268	0.040453345
178	0x3d435b39	0.04769442
179	0xbd169f40	-0.036772966
180	0x3d5fca67	0.054636385
181	0x3d82854e	0.06373082
182	0x3dc1fe4c	0.094723314
183	0x3d53d9a7	0.05172124
184	0x3d85e48d	0.06537733
185	0xbc19244e	-0.009347035
186	0x3d2e0e29	0.042493973
187	0x3cd064c9	0.025438683
188	0xbd8d9933	-0.06913986
189	0xbda3f4df	-0.0800569
190	0xbce8c81b	-0.02841573
191	0x3c4bb543	0.012433353
192	0x3c3cb905	0.0115187215
193	0x3d4418a1	0.04787505
194	0x3d159d8a	0.036527194
195	0x3cfa9a63	0.030591195
196	0xbb78fc2c	-0.0037992103
197	0x3d651b2a	0.05593411
198	0x3d2dedf8	0.042463273
199	0xbd5000e5	-0.050782103
200	0xbd0ecb00	-0.034861565
201	0xbc9854fe	-0.018595215
202	0xbc2a4e01	-0.010394574
203	0x3cbebc1d	0.023283059
204	0x3bfd16f3	0.007723683
205	0xbcb5db5a	-0.022199322
206	0x3d0a6dcf	0.033796128
207	0xbcd86962	-0.026417438
208	0x3ce69508	0.028147236
209	0x3d3177fa	0.04332731
210	0xbc397d7b	-0.011321421
211	0x3c9b98b5	0.018993715
212	0xbc8beff7	-0.017082198
213	0x3d069128	0.032853276
214	0x3cdce0bf	0.026962636
215	0x3c729123	0.014805111
216	0xbd435188	-0.047685176
217	0xbd52feae	-0.051512413
218	0x3d282762	0.041053183
219	0x3d8fde94	0.07024875
220	0xbbc197a2	-0.0059079686
221	0x3d7cab9d	0.0616871
222	0xbccbc654	-0.024874844
223	0x3c184279	0.009293192
224	0x3d6c3df9	0.05767629
225	0x3d6238f5	0.0552301
226	0xbd22cbfb	-0.039745312
227	0x3d05fdce	0.03271275
228	0x3d2fc07a	0.04290817
229	0x3ce8b034	0.028404333
230	0x3da6a557	0.08137005
231	0x3be5750e	0.0070024794
232	0x3c77da05	0.0151276635
233	0x3c922d03	0.017843729
234	0x3d87ce77	0.06631177
235	0x3d7cd498	0.061726183
236	0x3d036fca	0.032089032
237	0xbc9fd21c	-0.019509368
238	0xbcf7b43e	-0.030237313
239	0xbc0dc3e9	-0.008652666
240	0xbd4af181	-0.049546722
241	0x3a9523a5	0.0011378421
242	0x3aa2d0fc	0.0012421901
243	0xbca61c12	-0.020277057
244	0x3d0a4c64	0.033764258
245	0x3c7b5586	0.015340215
246	0x3d4faeed	0.05070393
247	0xbac2db2e	-0.0014866346
248	0xbd2113da	-0.039325573
249	0x3cefe5d9	0.029284405
250	0xbad25b24	-0.001604889
251	0xbca7da8f	-0.020489959
252	0xbd1d33b0	-0.03837937
253	0xbb4a4266	-0.003086233
254	0xbd894728	-0.06703025
255	0xbadd4d96	-0.0016884084

batchnorm3.weight f4 [16]
0	0x3f8b1a77	1.0867451
1	0x3f8c6618	1.0968657
2	0x3f8514b4	1.0396943
3	0x3f87eb5f	1.0618705
4	0x3f8a59a0	1.0808601
5	0x3f88275f	1.0637015
6	0x3f8710fe	1.0552061
7	0x3f89530c	1.0728469
8	0x3f86ac65	1.0521361
9	0x3f8769a1	1.057911
10	0x3f89fd06	1.0780342
11	0x3f8553d3	1.0416206
12	0x3f85ef1d	1.0463597
13	0x3f8601dd	1.0469319
14	0x3f873b23	1.0564922
15	0x3f869006	1.0512702

batchnorm3.bias f4 [16]
0	0x3bce843b	0.006302384
1	0xbd207fbf	-0.03918433
2	0xbd147f76	-0.03625437
3	0xbc6a23f7	-0.014290801
4	0xbcb8f477	-0.022577507
5	0xbcb17845	-0.021663794
6	0xbc5c82b8	-0.0134589
7	0xbbf8bc5e	-0.0075908145
8	0xbcef7541	-0.029230716
9	0xbc7c2ac3	-0.015391055
10	0xbc1c25b9	-0.009530478
11	0xbca0b0f7	-0.019615633
12	0xbc2f530b	-0.010700951
13	0x3a86a344	0.0010272046
14	0xbb1f21c8	-0.002428161
15	0xbd16d3c0	-0.036823034

batchnorm3.running_mean f4 [16]
0	0x3d8010e2	0.0625322
1	0x3d81bc2c	0.06334719
2	0x3d955e29	0.0729335
3	0xbc98c521	-0.018648686
4	0xbdfdfda9	-0.124018975
5	0x3d36753a	0.04454539
6	0x3df42f6d	0.11923108
7	0xbbcae046	-0.0061912863
8	0xbc7dc0e2	-0.015487881
9	0xbe024bcd	-0.12724228
10	0x3cf71f08	0.030166164
11	0x3d409e3d	0.047025908
12	0x3bb4cb59	0.005517405
13	0xbdede705	-0.11616329
14	0x3de09373	0.10965624
15	0x3dd3fdf3	0.10351171

batchnorm3.running_var f4 [16]
0	0x3f16c654	0.58896375
1	0x3f31ac3b	0.6940343
2	0x3f08b11b	0.5339524
3	0x3ee2c798	0.44292903
4	0x3f404dac	0.7511852
5	0x3f24edc4	0.644253
6	0x3f3afcfe	0.73042285
7	0x3f0b2b01	0.54362494
8	0x3efa4b0d	0.48885384
9	0x3f14dec2	0.581524
10	0x3f412663	0.754492
11	0x3f1ab4b4	0.6043198
12	0x3f140689	0.5782247
13	0x3f16d489	0.5891805
14	0x3f0839cd	0.53213197
15	0x3f3ff9cc	0.74990535

dense.weight f4 [6, 1488]
0	0x3aaac4e3	0.0013028648
1	0xbd54def6	-0.051970445
2	0xbcf0adea	-0.029379804
3	0xbc940f3a	-0.018073667
4	0xbcdc86bc	-0.026919715
5	0x3b453817	0.0030093247
6	0xbb9bdd20	-0.0047565848
7	0x3cdc8810	0.026920348
8	0x3c61491f	0.013750344
9	0xbc4e3cb9	-0.01258772
10	0x3ca6b244	0.020348676
11	0x3cddcf75	0.027076462
12	0x3cdaa466	0.02668972
13	0xbc02e0a5	-0.00798813
14	0xbd0ddff9	-0.034637425
15	0x3d105f61	0.03524721
16	0x3c8ef06d	0.017448628
17	0xbcc63c47	-0.024198664
18	0xbb9c7d2b	-0.0047756634
19	0xbc6ddb0f	-0.01451756
20	0xbcc00338	-0.023439035
21	0xbc9bdb49	-0.019025462
22	0x3a230901	0.0006219298
23	0xbd3373b5	-0.04381152
24	0xbbcd3d34	-0.0062633995
25	0xbc87ed4a	-0.01659264
26	0xbcb322d3	-0.021867191
27	0x3a8f9cec	0.00109568
28	0xbb2f9923	-0.0026794157
29	0xbc983e80	-0.01858449
30	0xbd3163c9	-0.043308053
31	0xbb8494f2	-0.004046076
32	0xbd20ede0	-0.039289355
33	0xbbb0bb26	-0.0053934036
34	0xbc8e4c8f	-0.01737049
35	0xbbda6591	-0.0066649397
36	0x3c81038e	0.015748765
37	0xbd3136d2	-0.04326517
38	0xbabcff16	-0.0014419283
39	0xbc98dd95	-0.018660346
40	0xbd19c6d8	-0.037543148
41	0xbc517e2a	-0.0127864275
42	0x3c42fd2a	0.011901179
43	0x3cb859ca	0.022503752
44	0xb9798c94	-0.0002379886
45	0x3c5c7cf7	0.013457528
46	0xba89347f	-0.0010467916
47	0x3c41ce99	0.011829042
48	0x3c73d8b3	0.014883208
49	0x3bff1815	0.007784853
50	0x3cbcc08d	0.023041034
51	0x3d1fb75b	0.03899322
52	0xbbe643bc	-0.0070271175
53	0x3a246e69	0.0006272556
54	0xbb5e7cf0	-0.003394898
55	0xbd638a93	-0.055552077
56	0x3c07fe74	0.008300412
57	0xba8625f0	-0.0010234695
58	0x3c495495	0.012288232
59	0xbd81850e	-0.06324206
60	0xbd47213a	-0.04861567
61	0x3c319b88	0.010840304
62	0xbcfda2ea	-0.030961473
63	0x3c2581a1	0.010101707
64	0xbc070ce6	-0.008242821
65	0xbcf3183f	-0.029674647
66	0x3c2a290d	0.010385764
67	0x3cf06eb6	0.029349666
68	0xbc3a7265	-0.011379813
69	0x3c93a077	0.018020852
70	0x3d0e3008	0.034713775
71	0xbcc033d9	-0.023462223
72	0x3c95cf3a	0.01828729
73	0xbd57f54f	-0.05272418
74	0x3cc493d8	0.023996279
75	0x3d743001	0.059616093
76	0xbc9fad33	-0.019491768
77	0x3d268748	0.040656358
78	0x3be8230e	0.007084257
79	0x3cc5af61	0.024131479
80	0x3a38103a	0.0007021461
81	0xbb6abc6e	-0.003581788
82	0x3d0caa14	0.034341887
83	0x3cf8a004	0.030349739
84	0x3cc97c0e	0.024595287
85	0x3cf04f85	0.029334793
86	0x3c8db46a	0.017297942
87	0x3c0a4502	0.008439304
88	0x3d7bbfbb	0.061462145
89	0xbbb490aa	-0.0055104094
90	0x3d4081b1	0.046998683
91	0xbc0977d0	-0.008390382
92	0x3d49dc02	0.04928208
93	0xbc628b9c	-0.013827231
94	0xbc9a9ba1	-0.018873038
95	0xbc8a5e84	-0.016890772
96	0xbcdc3451	-0.026880415
97	0xbc7a5ce7	-0.015280939
98	0xbb9f4874	-0.004860932
99	0x3c5e11f4	0.013554085
100	0xbc13f918	-0.009031557
101	0x3d1d403e	0.038391344
102	0xbcdb3c54	-0.026762165
103	0x3c393b2c	0.011305612
104	0x3c1a48c6	0.009416765
105	0xbc9d7d63	-0.019224828
106	0x3ca9f0ac	0.020744644
107	0xbb4c4a5f	-0.0031172258
108	0xbc2569b8	-0.010096006
109	0xbd89241d	-0.06696341
110	0xbab1aa0d	-0.0013554707
111	0xbd0a7930	-0.03380698
112	0xbbd93d4a	-0.0066296207
113	0xbd4f66fb	-0.05063532
114	0xbd50c353	-0.050967526
115	0xbcaaefbb	-0.020866266
116	0x3b71d104	0.0036898265
117	0xbda0bf07	-0.078489356
118	0xbb58178b	-0.0032973017
119	0x3cf5988d	0.029979968
120	0xbd438028	-0.04772964
121	0xbc41549a	-0.011799956
122	0xbccdb6c2	-0.02511156
123	0xbd5ad420	-0.053424954
124	0xbd491d0e	-0.049099974
125	0x3c58194e	0.013189627
126	0xbd17479a	-0.03693352
127	0xbd569d03	-0.05239583
128	0x3c961cf3	0.018324351
129	0xbcbdb0e4	-0.023155637
130	0x3c62411e	0.01380947
131	0xbd46a9a3	-0.048501622
132	0xbd1543e6	-0.036441706
133	0x3c0845fe	0.008317469
134	0xbc1cad62	-0.009562822
135	0x3cabe153	0.020981466
136	0xbd98212d	-0.07428203
137	0xbc204adb	-0.009783472
138	0xbd2d3498	-0.042286485
139	0x3ca564bb	0.020189634
140	0xbd15a5c8	-0.036535054
141	0x3ca3a903	0.019978052
142	0xbc888937	-0.016666992
143	0x3c958f7f	0.0182569
144	0x3b975947	0.004618797
145	0xbc0a001c	-0.008422878
146	0x3cac8ba7	0.021062685
147	0xbd3c307b	-0.045944672
148	0xbd78e7fc	-0.060768113
149	0xbd13fe72	-0.03613133
150	0x3d0bfa89	0.034174476
151	0xbd0b34a7	-0.03398576
152	0x3bea9138	0.0071584247
153	0xbcf6ceda	-0.030127931
154	0xbce965f8	-0.028491005
155	0xbcdec18f	-0.027191905
156	0x3bc0506c	0.005868962
157	0xbc29a71f	-0.010354786
158	0x3c8d3af1	0.01724002
159	0xbbc20fea	-0.0059223073
160	0x3b23dfa8	0.0025005136
161	0xbaf675cc	-0.0018803417
162	0xbd5331fb	-0.051561337
163	0xbcc768fe	-0.024342056
164	0xbc187783	-0.009305838
165	0xbcec1046	-0.028816354
166	0x3d44014c	0.0478528
167	0xbcf0398d	-0.029324317
168	0x3d1ca8ef	0.038247045
169	0xbd3e52db	-0.046465736
170	0x3c044b21	0.008074553
171	0xbd1a59dc	-0.037683353
172	0xbccf617e	-0.025315043
173	0xbb6dd1b5	-0.0036288325
174	0xbcd83774	-0.02639363
175	0x3c7e754e	0.015530897
176	0x3c825a6c	0.015912257
177	0x3d188014	0.03723152
178	0xbcce848d	-0.02520969
179	0x3babc946	0.0052424995
180	0xbc406810	-0.01174356
181	0xbb362ccb	-0.0027797695
182	0x3d11eb88	0.03562501
183	0x3cb83eeb	0.02249094
184	0x3c9dcc89	0.019262569
185	0x3bd26e2d	0.0064218254
186	0x3cb2bf28	0.021819666
187	0x3bb1621c	0.005413307
188	0x3b63a6b1	0.0034736807
189	0xbd0e468e	-0.034735255
190	0x3c236b3e	0.009974299
191	0xbc36c7f7	-0.011156074
192	0xbd031e56	-0.032011352
193	0x399b2996	0.00029594888
194	0x3d0aea1b	0.033914667
195	0xbd51378a	-0.051078357
196	0xbc30abc5	-0.010783141
197	0x3cb70144	0.02233947
198	0x3cbc2977	0.02296899
199	0x3c1ffc08	0.009764679
200	0xbd021089	-0.03175405
201	0xbced4a56	-0.02896611
202	0xbd3db4a7	-0.04631486
203	0xbd0a7ed4	-0.03381236
204	0xbd7728c6	-0.06034162
205	0x3c0288ab	0.0079671545
206	0xbd07e600	-0.03317833
207	0xbd534849	-0.05158261
208	0xbc0c110f	-0.008548989
209	0xbd5d4b2d	-0.05402677
210	0x3c2506fe	0.010072468
211	0xbcf42f2f	-0.029807655
212	0xbc8f1a98	-0.017468736
213	0xbcee491f	-0.029087601
214	0xbd21847b	-0.039432984
215	0xbcc0496f	-0.023472516
216	0x3ca2a381	0.019853355
217	0xbd3bb2f7	-0.04582497
218	0xbcd98f3e	-0.026557561
219	0xbd520138	-0.051270694
220	0xbd177a6b	-0.03698198
221	0xbc8edfd0	-0.017440706
222	0xbd8c4a7e	-0.06850146
223	0xbd03ea08	-0.03220561
224	0xbd8180a2	-0.06323363
225	0xbd22babf	-0.039728876
226	0xbd1f24e8	-0.038853556
227	0xbb616940	-0.003439501
228	0xbbc4953d	-0.005999236
229	0xbc783ed9	-0.015151703
230	0xbbcefdde	-0.0063168844
231	0xbc98ec4a	-0.018667359
232	0xbc73b0be	-0.014873682
233	0x3d003fe1	0.03131092
234	0xbce28f29	-0.027656155
235	0xbcc954f0	-0.024576634
236	0xbc98b2e7	-0.018639995
237	0xb99ed20c	-0.00030292606
238	0xbca3c191	-0.01998976
239	0xbcfcbd6d	-0.030852044
240	0x3ca83e15	0.020537416
241	0x3c5597f7	0.0130367195
242	0xbd6b0bdf	-0.057384368
243	0xbc6602d2	-0.014038758
244	0x3aee01a5	0.0018158449
245	0x3cc3ca61	0.023900213
246	0x3aec9d18	0.0018052189
247	0xbceb3152	-0.028710041
248	0xbd0b5641	-0.034017805
249	0x3c811f8e	0.015762117
250	0xbbc8f018	-0.006132137
251	0x3c35dca2	0.011099966
252	0xbd4399bc	-0.047754034
253	0x3ccd1233	0.025033092
254	0xbc406f0d	-0.011745227
255	0xbcc3489f	-0.02383834

dense.bias f4 [6]
0	0x3cf065ba	0.029345382
1	0x3c8486d3	0.01617757
2	0xbc9edcfa	-0.01939248
3	0xbcc5b798	-0.024135396
4	0xbba43e40	-0.0050123036
5	0xbb00addf	-0.0019634885

exp_avg f4 [8, 1, 1, 64]
0	0x3bea1e6b	0.0071447394
1	0x3c0dfddc	0.008666482
2	0x3c0477b9	0.008085185
3	0x3c1a049d	0.009400514
4	0x3c3b05fa	0.011414999
5	0x3c2f7e8f	0.010711326
6	0x3c44f056	0.012020191
7	0x3c2eaf56	0.0106619205
8	0x3c20fe5e	0.009826271
9	0x3c19d8cc	0.009390067
10	0x3bc35c09	0.005961899
11	0x3bb28163	0.005447553
12	0x3b8de1b4	0.0043298844
13	0x3b901375	0.0043968507
14	0x3bceeb60	0.00631468
15	0x3bbed053	0.005823174
16	0x3bd4a450	0.006489314
17	0x3bb71ab6	0.005587901
18	0x3bc36a3c	0.005963592
19	0x3be2258e	0.0069014495
20	0x3ba09a92	0.0049012387
21	0x3bbac497	0.005699705
22	0x3b94105c	0.0045185518
23	0x3b2d07e4	0.0026402408
24	0x3aaa9a1d	0.00130159
25	0xbad88311	-0.0016518553
26	0xbafcc2f4	-0.0019284175
27	0xbb877e08	-0.004134897
28	0xbbaa536a	-0.005197932
29	0xbb8852d7	-0.004160266
30	0xbba2d2e3	-0.0049689873
31	0xbb811ce8	-0.0039402135
32	0xbba665ce	-0.005078054
33	0xbbd7b1e9	-0.006582488
34	0xbbee541d	-0.0072732107
35	0xbc076b3f	-0.008265316
36	0xbbd18651	-0.0063941856
37	0xbbe01e40	-0.0068395436
38	0xbbc4c110	-0.00600446
39	0xbb8037be	-0.003912895
40	0xbb94b658	-0.0045383386
41	0xbb1ba4c4	-0.002374933
42	0xbb10030a	-0.0021974468
43	0xbb4c65da	-0.0031188638
44	0xbb065c90	-0.002050195
45	0xbab6b2f4	-0.001393883
46	0x3a345a64	0.00068799243
47	0xba87a2f3	-0.0010348245
48	0xbb650e94	-0.0034951316
49	0xbb70d24c	-0.003674644
50	0xbb96839c	-0.004593326
51	0xbb6ddeb1	-0.0036296064
52	0xbb9feada	-0.0048802914
53	0xbbc0060f	-0.0058600972
54	0xbbd799aa	-0.0065795975
55	0xbc1b4c1b	-0.009478594
56	0xbc0f6abe	-0.008753477
57	0xbc088e29	-0.008334675
58	0xbbd6e2d0	-0.0065578
59	0xbb48d126	-0.003064224
60	0xbb283432	-0.0025665876
61	0xba44935e	-0.0007498766
62	0xba2889bc	-0.00064292154
63	0xba794afe	-0.0009509771
64	0x3a0deea9	0.0005414286
65	0x3aebbf8a	0.001798616
66	0x3b711245	0.003678457
67	0x3b9614aa	0.0045801
68	0x3b9f20d8	0.00485621
69	0x3b985372	0.0046486193
70	0x3b7f94ca	0.0038998597
71	0x3b97b8f6	0.0046302034
72	0x3b9f1092	0.0048542703
73	0x3b490d06	0.0030677929
74	0x39767050	0.00023502228
75	0xbb32c178	-0.002727596
76	0xbb581e62	-0.0032977094
77	0xbacbb085	-0.0015540278
78	0x3aa3f318	0.0012508361
79	0x3b252472	0.0025198725
80	0x3aa0eb86	0.0012277223
81	0xb9ab58c1	-0.00032681788
82	0xbb301ca4	-0.002687254
83	0xbb9d9084	-0.0048084874
84	0xbbb9a31b	-0.0056651956
85	0xbbd14867	-0.006386805
86	0xbbca1aef	-0.0061677615
87	0xbba6ef0a	-0.0050944136
88	0xbb24d0bc	-0.002514883
89	0xb98df8d2	-0.00027079
90	0x396d5567	0.00022633896
91	0x3b0c8c89	0.002144607
92	0x3b29003b	0.002578749
93	0x3a18dde2	0.0005831403
94	0xba3e1377	-0.00072508253
95	0xbb52f4b7	-0.0032189318
96	0xbb91ed64	-0.004453348
97	0xbb65ee96	-0.0035084835
98	0xbb4cd1e0	-0.0031253025
99	0xbad5a634	-0.0016300143
100	0xb9b666d7	-0.00034790367
101	0xb98ae9c5	-0.00026495583
102	0xb885c8d0	-6.3793384e-05
103	0xba1652aa	-0.0005734364
104	0xbac9b5ac	-0.0015389225
105	0xbafe487c	-0.0019400264
106	0xbadcf936	-0.0016858939
107	0xba7ebd88	-0.00097175734
108	0x39f440d1	0.000465876
109	0x3a9c7bca	0.0011938747
110	0x3a7963f0	0.0009513488
111	0x3b242323	0.0025045357
112	0x3b979e50	0.0046270266
113	0x3bd83782	0.006598414
114	0x3c1290d3	0.008945662
115	0x3c1d4a6f	0.009600266
116	0x3c1cf42c	0.0095796995
117	0x3c2cdd28	0.010550775
118	0x3c4ba7fb	0.012430186
119	0x3c5b69f3	0.0133919595
120	0x3c4b624d	0.012413573
121	0x3c36e2e9	0.011162498
122	0x3c17a7e9	0.0092563415
123	0x3c13c1c0	0.009018362
124	0x3c32aae4	0.010905001
125	0x3c3563f3	0.011071193
126	0x3c29e704	0.01037002
127	0x3c16b8da	0.0091993455
128	0x3b58d9c7	0.003308879
129	0x3b3405e0	0.0027469322
130	0x3a83e9c3	0.0010064173
131	0xba5da1a2	-0.0008454566
132	0xbb0e9a5d	-0.0021759488
133	0xbaea1f4c	-0.001786211
134	0xb9c5d90e	-0.00037736486
135	0x3aece411	0.001807334
136	0x3b868e1d	0.0041062967
137	0x3bd704d6	0.006561856
138	0x3c14ee95	0.0090900855
139	0x3c037291	0.00802292
140	0x3bc4bd19	0.0060039875
141	0x3b9eea6b	0.004849722
142	0x3aed6551	0.001811186
143	0xba69d27d	-0.000891961
144	0xbb3ab6d5	-0.0028490324
145	0xbb759b35	-0.0037476544
146	0xbb47e8fd	-0.0030503862
147	0xbb3a5dca	-0.002843725
148	0xbb2e4c31	-0.0026595707
149	0xbb246d91	-0.002508972
150	0xbaf0576c	-0.0018336601
151	0xba690875	-0.0008889505
152	0x3884ecda	6.3383675e-05
153	0x3b2e04f6	0.002655325
154	0x3b9d70b9	0.0048046974
155	0x3bfd3545	0.0077272975
156	0x3c44a12e	0.012001319
157	0x3c6001ca	0.013672302
158	0x3c58cce7	0.013232446
159	0x3c4173cc	0.011807393
160	0x3c2ea4dd	0.010659424
161	0x3c2b9b3c	0.0104740225
162	0x3c3c345b	0.011487092
163	0x3c5b9183	0.013401392
164	0x3c4ccb7f	0.012499689
165	0x3c16ab0f	0.009196057
166	0x3bb6eb70	0.0055822656
167	0x3b15afda	0.0022840411
168	0xb8ed52fd	-0.000113164984
169	0xbb820e14	-0.0039689634
170	0xbbc3fd00	-0.0059810877
171	0xbb88d842	-0.0041761706
172	0xbb244a7b	-0.0025068808
173	0xb8cb5b32	-9.696781e-05
174	0x3a81d33b	0.000990487
175	0x39251afb	0.00015745677
176	0x3ae2eb58	0.001731257
177	0x3b67ad10	0.0035350956
178	0x3b5f7105	0.0034094464
179	0x3b440b4a	0.0029913955
180	0x3b9c32ce	0.0047667986
181	0x3befdb21	0.0073198234
182	0x3c0aafe5	0.008464788
183	0x3c178f5a	0.009250486
184	0x3c06da06	0.008230692
185	0x3bc238cb	0.0059271804
186	0x3b4a0655	0.0030826528
187	0xb788b0c5	-1.6294778e-05
188	0xba95b30a	-0.0011421156
189	0xbb19f0a3	-0.0023489378
190	0xbb9ca121	-0.0047799502
191	0xbbe62884	-0.007023873
192	0x3d0eff8a	0.03491167
193	0x3d0666b6	0.032812797
194	0x3cbe21e3	0.023209518
195	0x3c833ccb	0.0160202
196	0x3c25d5e2	0.010121794
197	0x39c10432	0.00036814954
198	0xbbd81c7b	-0.006595192
199	0xbc591740	-0.013250172
200	0xbc84cca0	-0.016210854
201	0xbc962243	-0.018326884
202	0xbca08d03	-0.01959849
203	0xbc927427	-0.017877651
204	0xbcb0dab6	-0.021588665
205	0xbcd86757	-0.026416464
206	0xbcfd336c	-0.030908309
207	0xbd09ac7a	-0.033611752
208	0xbcee2b6a	-0.029073436
209	0xbcaf6000	-0.021408081
210	0xbc341037	-0.010990194
211	0xbb81c9ec	-0.0039608385
212	0x3a365dbf	0.0006956718
213	0xb9af2d02	-0.00033412135
214	0xbc386127	-0.011253632
215	0xbc6debdc	-0.014521565
216	0xbc87c666	-0.016574096
217	0xbcac49bb	-0.021031251
218	0xbc94ba52	-0.01815525
219	0xbc6d9dc0	-0.014502943
220	0xbc1e7f35	-0.009673883
221	0xbc21de2f	-0.009879633
222	0xbc1eee76	-0.009700408
223	0xb9de7345	-0.00042429022
224	0x3bd1f3fe	0.00640726
225	0x3c52761c	0.012845542
226	0x3c836b37	0.016042335
227	0x3c81b2fd	0.015832419
228	0x3caed518	0.021341845
229	0x3cbde885	0.023182163
230	0x3cae3e94	0.021270074
231	0x3c8e31a9	0.017357664
232	0x3c51bcb6	0.01280134
233	0x3c5bd2de	0.013416974
234	0x3c494cf1	0.012286411
235	0x3c2daf90	0.010600939
236	0x3c0f7c13	0.008757609
237	0x3c1d967e	0.0096184
238	0x3c3d4e42	0.011554303
239	0x3bb0f516	0.0054003103
240	0x3b1ee2a0	0.0024243966
241	0x3b022633	0.0019859194
242	0x39cb4096	0.00038767298
243	0x3b5074f6	0.0031807995
244	0x3adbead7	0.0016778362
245	0x3b09848d	0.0020983547
246	0x3bb34a55	0.0054715076
247	0x3b7e14a9	0.0038769639
248	0xba8773d1	-0.0010334199
249	0xbc0e92d5	-0.008702
250	0xbc37098a	-0.011171708
251	0xbc6a2e7c	-0.014293309
252	0xbc91ef7c	-0.01781439
253	0xbc3ac346	-0.011399096
254	0xbbb08238	-0.005386617
255	0x3b591c8a	0.0033128583

exp_avg_sq f4 [8, 1, 1, 64]
0	0x3a246e64	0.0006272553
1	0x3a128718	0.00055895885
2	0x39fd7a24	0.00048346922
3	0x39e2eec0	0.00043283962
4	0x39d6a1b1	0.0004093773
5	0x39e1f945	0.00043101065
6	0x39ebcff8	0.00044977642
7	0x39f9528a	0.00047554477
8	0x3a07280a	0.00051558076
9	0x3a13f1f0	0.00056436565
10	0x3a202567	0.0006109089
11	0x3a2738f4	0.0006379031
12	0x3a28777e	0.0006426497
13	0x3a2303eb	0.00062185404
14	0x3a1934a1	0.0005844329
15	0x3a0c9f2a	0.00053642935
16	0x39ffb58a	0.00048772647
17	0x39e5b7e1	0.00043815284
18	0x39ca7f04	0.00038623076
19	0x39b4547b	0.00034395218
20	0x399a72f7	0.00029458824
21	0x398fa083	0.00027394676
22	0x398679c4	0.00025649194
23	0x3983a9eb	0.00025112866
24	0x3989e7a8	0.00026303274
25	0x39982d86	0.00029025617
26	0x39ae2af2	0.00033219863
27	0x39c7985b	0.00038069751
28	0x39e18d14	0.00043020456
29	0x39f58e5b	0.00046836105
30	0x3a025ec6	0.0004973229
31	0x3a01ea83	0.00049559044
32	0x39fe4da6	0.00048504508
33	0x39ec6ddd	0.00045095282
34	0x39d96e0a	0.0004147145
35	0x39d37aa5	0.00040336433
36	0x39c1e2cf	0.00036980814
37	0x39bad153	0.00035632643
38	0x39b3d870	0.000343028
39	0x39a8dea9	0.00032209352
40	0x39b230dc	0.0003398721
41	0x39c7ab9b	0.00038084094
42	0x39e06a86	0.00042803976
43	0x3a05c856	0.00051034
44	0x3a1eb0e6	0.00060535816
45	0x3a3a666b	0.00071105984
46	0x3a52535a	0.00080232846
47	0x3a5744fc	0.00082118786
48	0x3a4ca0b8	0.00078059314
49	0x3a47aa04	0.0007616582
50	0x3a49687a	0.000768311
51	0x3a4e4305	0.0007868263
52	0x3a50aa5a	0.00079599547
53	0x3a4e2f8f	0.0007865363
54	0x3a484362	0.00076394354
55	0x3a420c51	0.0007402348
56	0x3a36bdee	0.0006971051
57	0x3a305614	0.0006726694
58	0x3a2ba1d0	0.0006547244
59	0x3a25946a	0.0006316366
60	0x3a2670b2	0.00063491904
61	0x3a2542f5	0.0006304228
62	0x3a240701	0.0006257147
63	0x3a21e210	0.00061753485
64	0x3a5e34a0	0.00084764697
65	0x3a4fa004	0.00079202675
66	0x3a45d370	0.000754646
67	0x3a4396b3	0.00074611156
68	0x3a43bb3a	0.00074665586
69	0x3a4de2c9	0.0007853923
70	0x3a578a80	0.0008222237
71	0x3a53d4de	0.0008080731
72	0x3a435516	0.00074513385
73	0x3a31585f	0.00067651825
74	0x3a232783	0.0006223844
75	0x3a1ecd58	0.000605782
76	0x3a29a5be	0.0006471536
77	0x3a32a313	0.0006814461
78	0x3a368f81	0.0006964133
79	0x3a39b932	0.0007084786
80	0x3a3f02ac	0.000728647
81	0x3a4630f0	0.0007560393
82	0x3a4aaf56	0.00077318156
83	0x3a59260c	0.00082835625
84	0x3a6254cf	0.0008633853
85	0x3a69b819	0.00089156773
86	0x3a6d940c	0.0009062893
87	0x3a6c7f81	0.0009021685
88	0x3a72569b	0.00092444726
89	0x3a755739	0.00093590055
90	0x3a6fa4c6	0.00091416796
91	0x3a6449db	0.0008708515
92	0x3a56a7da	0.0008188464
93	0x3a3c3df5	0.0007180863
94	0x3a1d4bf7	0.00060003944
95	0x3a0623f1	0.000511705
96	0x39ea257e	0.00044659892
97	0x39cf8f47	0.00039588867
98	0x39b62759	0.0003474306
99	0x399e677c	0.0003021321
100	0x398723ba	0.00025775825
101	0x3949d3e6	0.00019247792
102	0x3920c6cd	0.00015332848
103	0x391f5a71	0.00015197114
104	0x39313efc	0.00016903499
105	0x3964a8e7	0.00021806695
106	0x399c223b	0.00029780142
107	0x39adf6bc	0.00033180963
108	0x39a1f3ea	0.00030890043
109	0x399fa144	0.00030446996
110	0x39a831a1	0.00032080433
111	0x39c01c66	0.00036642252
112	0x39dd0036	0.00042152562
113	0x39e940ca	0.00044489495
114	0x39ff1e92	0.00048660167
115	0x3a0e3179	0.0005424242
116	0x3a1aa77d	0.00058995915
117	0x3a253884	0.0006302672
118	0x3a29e55b	0.0006481015
119	0x3a2c7266	0.0006578326
120	0x3a313a1d	0.0006760674
121	0x3a38be2f	0.00070473825
122	0x3a400765	0.00073253206
123	0x3a3eb3cf	0.00072747184
124	0x3a3b1091	0.00071359525
125	0x3a32ef02	0.0006825776
126	0x3a26c56f	0.00063618174
127	0x3a1b133e	0.0005915648
128	0x3a3a0b5b	0.0007097029
129	0x3a167178	0.0005738954
130	0x39f3d6fa	0.00046508742
131	0x39cc7953	0.00039000306
132	0x39c6f80b	0.0003795031
133	0x39d602c8	0.00040819333
134	0x39f85041	0.0004736204
135	0x3a0e32c3	0.0005424434
136	0x3a16181d	0.0005725639
137	0x3a239fb0	0.0006241752
138	0x3a36d769	0.00069748476
139	0x3a4463b7	0.00074916653
140	0x3a4aa132	0.00077297084
141	0x3a47f36e	0.00076275214
142	0x3a454b9c	0.000752622
143	0x3a4252b0	0.0007412834
144	0x3a3cdb7f	0.00072043383
145	0x3a4d7c0a	0.00078386127
146	0x3a69da06	0.00089207327
147	0x3a821b55	0.0009926358
148	0x3a863b49	0.0010241057
149	0x3a729639	0.00092539523
150	0x3a4dba7d	0.00078479183
151	0x3a328c5a	0.0006811075
152	0x3a2398a7	0.00062407035
153	0x3a258e45	0.00063154503
154	0x3a34915a	0.0006888114
155	0x3a4aa492	0.00077302114
156	0x3a6686cc	0.000879389
157	0x3a836def	0.001002727
158	0x3a93a5ea	0.0011264656
159	0x3a9c3030	0.0011916216
160	0x3a9d7872	0.0012014045
161	0x3a9b3857	0.0011842352
162	0x3a987081	0.0011630208
163	0x3a9a8a25	0.0011790438
164	0x3a980843	0.0011599142
165	0x3a91bd6c	0.0011119074
166	0x3a8e0c60	0.0010837428
167	0x3a8b7569	0.0010639849
168	0x3a8ac015	0.0010585809
169	0x3a865b9c	0.001025069
170	0x3a848189	0.0010109405
171	0x3a85b8d3	0.0010202177
172	0x3a871baa	0.0010307927
173	0x3a898cee	0.0010494271
174	0x3a8a3bc4	0.0010546376
175	0x3a8b090e	0.0010607557
176	0x3a8b4769	0.001062614
177	0x3a8a1142	0.0010533708
178	0x3a85a4cd	0.0010196209
179	0x3a7fec41	0.00097626826
180	0x3a766353	0.0009398956
181	0x3a720415	0.00092321757
182	0x3a6d4153	0.00090505666
183	0x3a7213f0	0.00092345383
184	0x3a803a7a	0.0009783052
185	0x3a8751f1	0.0010324103
186	0x3a88d99d	0.001044083
187	0x3a870e45	0.0010303935
188	0x3a83bfec	0.0010051704
189	0x3a84a782	0.0010120722
190	0x3a876872	0.001033081
191	0x3a87cc45	0.001036056
192	0x3b2f3767	0.0026735903
193	0x3b34addf	0.0027569456
194	0x3b33708f	0.0027380323
195	0x3b3cc751	0.0028805325
196	0x3b494d4d	0.003071624
197	0x3b3c7fc0	0.0028762668
198	0x3b2d67a8	0.002645949
199	0x3b310108	0.0027008671
200	0x3b423ce6	0.002963835
201	0x3b581eb1	0.0032977278
202	0x3b61ebc1	0.0034472796
203	0x3b5069c2	0.0031801318
204	0x3b365235	0.0027819995
205	0x3b2378e2	0.0024943878
206	0x3b22e0aa	0.0024853148
207	0x3b29451d	0.0025828548
208	0x3b311b17	0.0027024203
209	0x3b30b2a0	0.0026961938
210	0x3b252bff	0.0025203226
211	0x3b211a57	0.002458235
212	0x3b26ffed	0.0025482133
213	0x3b2e0027	0.0026550384
214	0x3b30dcae	0.0026987004
215	0x3b29da44	0.002591745
216	0x3b25d58a	0.002530428
217	0x3b2bb942	0.0026202952
218	0x3b274219	0.0025521575
219	0x3b226768	0.0024780873
220	0x3b23feca	0.0025023692
221	0x3b30a568	0.0026954059
222	0x3b40c910	0.0029416718
223	0x3b31a7c9	0.0027108064
224	0x3b2454f1	0.0025075043
225	0x3b1dc05d	0.0024070956
226	0x3b2450e1	0.0025072622
227	0x3b445259	0.002995631
228	0x3b684a1e	0.0035444568
229	0x3b82a930	0.003987454
230	0x3b8013d2	0.0039086128
231	0x3b5d7c67	0.0033796073
232	0x3b36ac23	0.0027873598
233	0x3b10a346	0.0022069975
234	0x3afc7d6f	0.0019263456
235	0x3b048808	0.0020222683
236	0x3b1e5a96	0.002416288
237	0x3b28d445	0.0025761288
238	0x3b2112d7	0.002457788
239	0x3b191d52	0.0023363424
240	0x3b15add2	0.00228392
241	0x3b17efe1	0.002318375
242	0x3b28b34d	0.0025741637
243	0x3b4079ca	0.0029369467
244	0x3b50b7c6	0.0031847819
245	0x3b4bcd04	0.003109754
246	0x3b380298	0.0028077718
247	0x3b26c727	0.0025448294
248	0x3b2282b0	0.0024797134
249	0x3b25ffd6	0.0025329492
250	0x3b269536	0.0025418526
251	0x3b2cc59c	0.0026362902
252	0x3b327ad9	0.0027233867
253	0x3b31adc1	0.0027111622
254	0x3b2f99e1	0.00267946
255	0x3b2f34e4	0.0026734406

exp_avg f4 [8]
0	0xb40e029e	-1.3225733e-07
1	0xb410d43b	-1.3488254e-07
2	0xb4089bff	-1.2722738e-07
3	0xb4ae86f2	-3.250821e-07
4	0xb447be8c	-1.860264e-07
5	0xb5aa0935	-1.2668667e-06
6	0x342c9c3a	1.6075583e-07
7	0x3439c0d9	1.7299625e-07

exp_avg_sq f4 [8]
0	0x2b00a387	4.5701675e-13
1	0x2be4a35f	1.6245719e-12
2	0x2a6ed40a	2.1212212e-13
3	0x2b8250e4	9.259507e-13
4	0x2b033d01	4.662521e-13
5	0x2cfdc6fc	7.212784e-12
6	0x2b2c3edd	6.1193916e-13
7	0x2beea466	1.6956547e-12

exp_avg f4 [8]
0	0xb25b72db	-1.2773593e-08
1	0x30e44071	1.6607499e-09
2	0xb1001232	-1.8636794e-09
3	0xb1fbf197	-7.332527e-09
4	0xaec03c75	-8.7418885e-11
5	0xaf88a394	-2.4854485e-10
6	0x2b24e777	5.8585726e-13
7	0xb0849e9d	-9.649345e-10

exp_avg_sq f4 [8]
0	0x26d3cef1	1.4697158e-15
1	0x26ab5ff4	1.1891517e-15
2	0x26acf4cd	1.2001251e-15
3	0x26a0d1b5	1.1159071e-15
4	0x26c8f90b	1.3945291e-15
5	0x2748ecd6	2.7883965e-15
6	0x26f644b1	1.7088298e-15
7	0x2743c8ab	2.7170469e-15
